examples/data/Crane3R/crane3r.onnx (onnx, 69022 bytes, 8 tensors)

fc1.weight f4 [64, 3]
00000000: f50c 093f fdc4 913e b5eb 183d 2f33 09bf
00000010: 505b 7ebe 977b babd 3454 933e d902 8bbd
00000020: a1b0 89bc 1f02 753e 106c debd 54b7 223f
00000030: 65ab c2bd 38e0 7f3e 3995 7bbe a0ee 72be
00000040: 2f52 0a3f bdd2 c6be 36d2 a63e 98cc db3e
00000050: a4c2 583e c0d3 b5bd 38aa 0f3e 141f c13e
00000060: c610 f13e c8bc acbd 3e76 0cbf e7c7 a53e
00000070: 9df7 9cbd 3539 08be 160a c6be aa8e 43bf
00000080: 6b65 b9be e59f d2be 9a5c 373e eed8 1b3f
00000090: 0ffe 29bd ba55 733d 0375 c73d 0011 6c3e
000000a0: c50b 643e a375 d33e a09a 073f 3efe c63e
000000b0: c825 253e bada 04bb e535 98bd 5d15 a53e
000000c0: c1c7 8dbe b05a d9be 14ad 8b3e 42d4 63be
000000d0: 137c 403a 66ad 33be 5446 67bd 9b3f b8be
000000e0: 17c9 103f bd89 b13e 20d9 383e ce3c c8be
000000f0: 1f89 1cbf 2670 5c3e 3fe5 ab3e cc77 77be
00000100: 6bff 4c3e 8cdd cb3e 2cdd 47be 6b94 16bd
00000110: 493d d43e 744a 953d e0b9 563b 80eb 8c3e
00000120: 1ee0 843d 5c6c 0b3f abec 9e3e 4e19 9ebd
00000130: 010c e93d 9bd9 d33e c557 1bbb d3e7 ed3e
00000140: c1e0 bbbd 1dd7 cb3e 6c13 683d e7cd 73bd
00000150: 9c9b 72bd 96de 2ebd adb5 1abd ee0d f6be
00000160: b9ae 0f3f 0024 8dbc 78b5 22bc 6277 3ebd
00000170: e89d 5dbd bc2a eb3d 5c19 e73e 3350 c43e
00000180: c131 653d c927 c63e 1208 4f3e 75fc 3a3e
00000190: 39a6 f83e e042 ebbd c142 f23e 5113 b23e
000001a0: 4208 2e3e 5927 1c3f e004 60bf a5de 26be
000001b0: 96eb 0fbe 3ad8 b43e 0338 b13e 3f4a d53e
000001c0: a6d1 453e 307d 833d d2c2 cf3b 7646 7c3e
000001d0: 367c ea3e 5f93 0a3d eeb1 db3e 45c9 c8bd
000001e0: 2e38 513e b81b 833e 2397 1fbe 6c20 a8be
000001f0: a80d 773e 766f d0be 8ad8 2bbf 70c7 833d
00000200: c93a 06be 5c21 cabe 6431 8f3e 78c2 99be
00000210: dbb3 80be 5e81 a6be 0a41 9e3e 519f 7e3e
00000220: aef3 36be d7a1 523e 9f00 dabe 189e edbe
00000230: 036f 76be b745 413c 2063 883e ac87 1abd
00000240: 5faf 12bf 3490 e63d 0d93 ed3d c511 b8be
00000250: 33c6 0f3f e1b7 0a3f ad7c 3fbe d2e0 f93e
00000260: b9e0 d5be f3a7 343e 38f6 dc3e 4801 fabe
00000270: 2fb2 bd3b 3da5 3d39 23ed 693d 4fd6 6d3e
00000280: 36eb e7bd 5114 e8be c78f 8b3e cc90 3abf
00000290: eb26 c73e b4dc 283d 3979 38bd 33e1 4f3c
000002a0: 92ff 353e f861 1b3f 6d3e ab3e 4822 debe
000002b0: 3ad9 e23e b2bf 76be f901 cf3d 0ce8 673d
000002c0: 4eb1 f03e 77d2 2e3e 9f43 8f3b 4226 1dbf
000002d0: 7110 35be 8955 8bbb f9fc 193f 4bd9 c4be
000002e0: 6780 3bbe 54a5 4ebe 55ae 05be a889 623c
000002f0: 3284 55bf dd66 0fbe 01f4 c03d fb20 263f
0.53535396 0.28470603 0.037334163 -0.53593725 -0.2483952 -0.09105604 0.2877518 -0.067876525
-0.016807856 0.2392659 -0.10860455 0.63560987 -0.09505347 0.24987876 -0.24568643 -0.2372384
0.5403165 -0.38832656 0.32582253 0.4292953 0.21168 -0.08878279 0.14029777 0.37719023
0.4708311 -0.08434445 -0.54867923 0.32379076 -0.07664416 -0.13303073 -0.3867957 -0.76389563
-0.36210188 -0.41137615 0.17906418 0.60877883 -0.041502055 0.059407927 0.09739115 0.2305336
0.22270115 0.41300687 0.52970314 0.38865846 0.16127694 -0.0020271973 -0.074321546 0.3224286
-0.27691463 -0.42452002 0.27280486 -0.22248939 0.0007342707 -0.17546615 -0.056463555 -0.35986027
0.5655684 0.34675398 0.18051577 -0.3910889 -0.6114673 0.21527156 0.33573338 -0.24166793
0.20019309 0.39817464 -0.19517964 -0.036762636 0.41453007 0.072895914 0.0032764599 0.27523422
0.064880595 0.5446222 0.31039938 -0.0771967 0.11379243 0.41376957 -0.0023703438 0.4646593
-0.09173728 0.39812556 0.056659147 -0.059522536 -0.059230432 -0.042692743 -0.037770916 -0.48057503
0.5612598 -0.01722908 -0.009930961 -0.04650057 -0.05410567 0.1148276 0.45136535 0.38342437
0.055955652 0.3870223 0.20217922 0.18260367 0.48564318 -0.11487365 0.47316554 0.34780362
0.16995338 0.6099754 -0.8750744 -0.1629587 -0.14054713 0.35321218 0.34613046 0.41658208
0.19318256 0.06420362 0.006340363 0.24636254 0.4579789 0.03383195 0.42909187 -0.09804014
0.20431587 0.25607085 -0.15584998 -0.32837236 0.24126303 -0.40710038 -0.6712729 0.06434524
-0.13108362 -0.39478576 0.2796737 -0.3003118 -0.2513722 -0.32520574 0.30908996 0.24865462
-0.17866394 0.2056955 -0.425786 -0.46409678 -0.24065785 0.0117964065 0.26638126 -0.037727043
-0.57298845 0.11257973 0.11600313 -0.35951057 0.56161803 0.54186827 -0.18699904 0.48804337
-0.41773012 0.17642193 0.431566 -0.48829103 0.0057890634 0.00018086 0.057110917 0.23226283
-0.1132416 -0.45328 0.2725813 -0.7287719 0.3889688 0.041226104 -0.045037482 0.012687969
0.17773274 0.60696363 0.33446065 -0.4338553 0.44306356 -0.24096563 0.10107798 0.05661778
0.47010273 0.17072473 0.0043720747 -0.613865 -0.17682053 -0.00425214 0.6015163 -0.3844703
-0.183107 -0.20180255 -0.13054784 0.013826765 -0.8340484 -0.14004083 0.0942154 0.64894074

fc1.bias f4 [64]
00000000: eb69 23bd 31d6 9d3f bed8 8e3f 3adf d4be
00000010: d9ac 43bf 3249 5b3f ef69 263f 65d4 903f
00000020: d9e8 213f 73f1 cd3d 2b30 353f 4303 06bf
00000030: db84 363f c419 803f 2255 eabe 9114 833f
00000040: 6829 ee3e 0239 983f 5fc1 583e 3825 a63f
00000050: 2910 983d 5126 343f 6237 ce3e 02cc 473f
00000060: 7c50 5b3f 4988 073f 5f6b 913f 2f1b 8e3f
00000070: 9500 b33f 1e76 40bf c900 863f e730 ce3e
00000080: ee25 093f 4fbe 9cbf 98a8 6f3e 22ba 1f3f
00000090: 4971 7c3f e4af 68bf 4fe2 f9be a68d 973f
000000a0: 4f54 143f f3cd 43bd ca00 06bf 8c51 603f
000000b0: c33d 083f 44b1 3e3f 496b e03e bd54 063f
000000c0: 2edd a0be 826a 7cbe 6497 e1be 06e6 04bf
000000d0: e383 6ebd d59a 4a3f 9a14 233e 21b7 613f
000000e0: 6fb8 1abf a619 19bf 8c86 5ebd 1e08 373f
000000f0: 1c2c 22bf 0532 653f ee3b 823f b437 05bf
-0.039895933 1.2330991 1.1159894 -0.41576558 -0.7643562 0.8565856 0.6500539 1.1314818
0.6324592 0.100558184 0.70776623 -0.52348727 0.7129647 1.0007863 -0.45768076 1.0240651
0.46515965 1.1892397 0.21167515 1.2980108 0.07424957 0.70370966 0.4027663 0.78045666
0.85669684 0.5294233 1.1360892 1.1102046 1.3984553 -0.7518023 1.046899 0.40271685
0.535735 -1.2245578 0.23404157 0.6239339 0.9861036 -0.9089339 -0.48805472 1.1840103
0.57941145 -0.04780383 -0.52344954 0.8762443 0.5321924 0.74489236 0.43831852 0.5247305
-0.31418747 -0.24650005 -0.44060814 -0.5191349 -0.058231246 0.79142505 0.15925828 0.8817006
-0.60437673 -0.5980476 -0.054327533 0.7149676 -0.63348556 0.8952945 1.0174539 -0.5203812

fc2.weight f4 [128, 64]
00000000: a88e e53d 5a93 5f3e ff63 92bc a290 0bbe
00000010: b1ce 2fbe 179f db3d f5b3 b1bb 2d73 b4bc
00000020: 6440 0b3e 9e48 84bd 47fb fdbd 1544 d03d
00000030: 2536 863d 8d17 78bd 99d6 943d 3652 263e
00000040: 27cd 103d 543a 083e 1fa9 803d 6bc5 a8bc
00000050: 8f30 62bc 5090 973c 20d1 923c 3758 293e
00000060: 6811 2f3e a652 013e 59e6 443e 5d06 bfbb
00000070: 3408 3a3f 325f e7bd af9b c13e 1850 1b3d
00000080: 9390 bdbc e878 95bd 44be 30bd 5f3a ddbd
00000090: e14c 843d 25f6 6cbe 1d44 28be 612e 473d
000000a0: 649d 2abc 3ece abbd a901 6ebd 19db 86bd
000000b0: e6de a3bd c56f e33d f9ff 28be 0e0c c23d
000000c0: cc4e fabd 3df8 173d 6ab0 38be 6945 81bd
000000d0: f0d7 d5bd 513b 3cb9 6310 383d f9ac 313f
000000e0: 708d 9a3d f9fb 0cbe a7ae f03d c169 433e
000000f0: 63c7 bcbe 8ae7 033d 7a77 bdbd ef34 24bc
00000100: 97eb 32bc edca d23d 985a 5f3e bf2f f93c
00000110: 96b1 793e 2508 863e 79a3 0f3e 02cf 8c3d
00000120: dd8b a2bc cac3 5ebd 9b11 243d 2c14 14be
00000130: 1a36 d23d f8ae 613e 9605 88bd 048b 3b3e
00000140: 0d9d 48bd 30d9 8d3c 95a9 283e 7a42 03ba
00000150: 616c 16be 6128 13be 77ba d03c 11c2 9b3e
00000160: 4940 dd3d 92e8 903d ecec e53d 1e18 333e
00000170: 06c9 5d3f cf80 07be 57dd ed3e ca54 e73d
00000180: c298 afbd 5e74 c93d f493 a23c a5d6 9abc
00000190: fa08 10bd 28f4 cabd b5b3 b9bd cd44 893d
000001a0: b7ea 923e 442f a4be 3b91 cabe ffa9 cdbd
000001b0: dfac 61bc a87e 7d3d 6550 e3be 0b9a 18be
000001c0: 724b 293c 99a1 483d 1133 03bf d243 80be
000001d0: 2c35 9c3d bedf 0f3e 5e8b 9a3e 3f96 363f
000001e0: 42e9 34be 4be9 12be 3cce 203e 9af8 183e
000001f0: 30ab 03bf d488 2cbd d371 043d aa2b a53d
00000200: b839 11bd b0ab e6bd da08 dabd e857 f9bd
00000210: a477 d93d 1ce2 11bd e8af 49bd ac88 afbd
00000220: a488 f8bd a4e3 48bd a09a 5e3c 30de 253c
00000230: 12e6 eebd cc4c 873d bc3a fd3d d8e3 fa3d
00000240: 0416 89bd 2cd9 073d f05a 43bd aa6d aabd
00000250: d0b7 5d3d c8a7 7d3d 8893 18bd d03b 63bd
00000260: c058 f73c 98cd 13bd 2042 7cbc 2830 e2bd
00000270: 1418 4dbd 58cc e9bd b08c c3bc 00f7 1d3d
00000280: 5210 973d 50de 54bc 00fd d4ba 728f acbd
00000290: 908d a0bd 2c61 40bd 1275 b3bd 883c 98bd
000002a0: 7cf7 513d b4db 08bd 2c89 d9bd 04ce 993d
000002b0: 00b2 94bc 0c79 02bd 1c03 3c3d 9468 a2bd
000002c0: c437 2fbd 3010 d6bc 20d8 1dbc a0c5 213c
000002d0: 643c aebd 5a48 a93d 6c24 1ebd ca19 cdbd
000002e0: d0b8 30bd 0eda 93bd 1611 c9bd 0812 ed3c
000002f0: bc62 0cbd 66af dabd 5229 c6bd 4081 f3bd
00000300: 902a 4abd 7d41 4f3e 513f 4b3e f5a6 b2b9
00000310: d5e7 82be 2cb6 83bc c077 dd3d e72e 013d
00000320: 640d c63b 1c2e 39bb 1be0 b7be b046 c9bd
00000330: 0c60 343e 8bd5 ed3d 15d2 c53d 0271 703d
00000340: 13d3 d23d f3ca 31be d462 133e 2ba1 023c
00000350: c628 d6bd 839d d73d 6f7f a7bc 0a57 16bc
00000360: 4a44 e13d a450 a8bd 9c71 943d d6c2 0c3e
00000370: f86c 153f 1457 22bd a339 b43e 83c1 3c3d
00000380: fcbf b8bd b2b0 0f3d d321 263d 14e7 d73c
00000390: 4290 69bd 3056 47be a304 efbc f371 303e
000003a0: 0ff7 d93d 1d2e 2fbe 0ec7 0d3d fe11 e1bd
000003b0: 9c54 0e3e 1513 ab3a d72a 8f3d b614 85bc
000003c0: b10d 44bd 1f9b ad3d d6be a0bd 3240 043e
000003d0: eca0 8dbd c114 173e 73b7 5a3e 4058 283f
000003e0: 7fd1 a2bd 5b1c 5ebd 071c a93d 46b7 f53e
000003f0: e5f9 46be a4b0 b9bd 3eba 30bf 4d89 513d
0.1120885 0.21833554 -0.017869947 -0.13629392 -0.1716869 0.10723703 -0.005423064 -0.022027576
0.13598782 -0.06459163 -0.12401443 0.101692356 0.06553296 -0.060569335 0.07267494 0.16242298
0.0353519 0.133035 0.06282257 -0.020601949 -0.013805523 0.01850143 0.017921984 0.16537558
0.17096484 0.12629184 0.19228496 -0.005829616 0.72668767 -0.11297454 0.3781409 0.03791818
-0.023140227 -0.07298452 -0.0431502 -0.10802149 0.06459976 -0.23140772 -0.16432233 0.048628215
-0.010413501 -0.08388947 -0.058107052 -0.06584758 -0.08001499 0.11105303 -0.16503896 0.094749555
-0.122220606 0.037101973 -0.18036047 -0.06312067 -0.104415774 -0.00017951174 0.044937503 0.6940456
0.07546508 -0.13767995 0.11752062 0.1908331 -0.3687087 0.032203235 -0.09251304 -0.010022386
-0.010920427 0.10292611 0.21811903 0.030418275 0.2438415 0.2617809 0.14027204 0.06875421
-0.019842083 -0.054385938 0.040055852 -0.1446082 0.10264225 0.22039402 -0.066416904 0.18314749
-0.0489779 0.017315477 0.1647094 -0.0005007159 -0.14689781 -0.14370872 0.025479538 0.30421498
0.10803277 0.07075609 0.1122683 0.17489669 0.8663486 -0.1323273 0.4645793 0.11295469
-0.08574058 0.098366484 0.01984594 -0.018901179 -0.03516481 -0.0990985 -0.090674795 0.06702576
0.28694698 -0.3206731 -0.39563927 -0.1004219 -0.013774126 0.061888367 -0.44397274 -0.14902513
0.010332929 0.048982237 -0.51249796 -0.25051743 0.07627329 0.14050195 0.30184454 0.7132301
-0.17667106 -0.14346807 0.15703672 0.14938584 -0.51433086 -0.042122677 0.032335114 0.08064969
-0.035455436 -0.112632155 -0.106462196 -0.1217497 0.10618523 -0.035616025 -0.049240023 -0.0857099
-0.12135437 -0.04904522 0.01358667 0.010123774 -0.11664976 0.06606445 0.12364718 0.12250489
-0.06693652 0.033166096 -0.047694147 -0.08321698 0.054130375 0.061927587 -0.03725007 -0.055476964
0.030193686 -0.03608474 -0.015396625 -0.11044341 -0.05007179 -0.114159286 -0.023870796 0.038565636
0.0737616 -0.012992457 -0.0016249716 -0.084257975 -0.07839501 -0.04696767 -0.08762564 -0.074334204
0.05126141 -0.03341265 -0.106218666 0.075099975 -0.018151283 -0.03185372 0.045901403 -0.07930103
-0.04277779 -0.026130766 -0.009634048 0.009873778 -0.08507612 0.08265753 -0.038608953 -0.100146845
-0.043145 -0.07219325 -0.09817712 0.028939262 -0.034273848 -0.10677986 -0.0967585 -0.11889887
-0.049356997 0.20239826 0.19848372 -0.00034075198 -0.255675 -0.016078077 0.10813856 0.03153887
0.0060440768 -0.0028256243 -0.35913166 -0.09827936 0.17614764 0.11612996 0.096592106 0.058701523
0.102941655 -0.17362575 0.14393169 0.007972996 -0.10456996 0.1052809 -0.020446507 -0.009176025
0.10999353 -0.08218506 0.07248232 0.13746199 0.583694 -0.039633825 0.35200223 0.046082985
-0.09020993 0.03508062 0.0405596 0.026355304 -0.05702234 -0.19466472 -0.029177016 0.17230968
0.10642826 -0.17107435 0.03461366 -0.1098976 0.13899463 0.0013051952 0.06990593 -0.016245227
-0.04786462 0.084768526 -0.07848899 0.12915114 -0.06915459 0.1475401 0.21359043 0.6575966
-0.079501145 -0.05422626 0.08257299 0.4799139 -0.19431265 -0.09066895 -0.69034183 0.05115633

fc2.bias f4 [128]
00000000: da01 d23e 9206 123f 62eb e7bd 1632 f13e
00000010: 635f 0f3f 8b06 74bd 8f1d bf3e c028 47bb
00000020: f886 e33e 5f77 f23e d49e 41bd 387a f43e
00000030: e0fe dd3e 2ac8 eb3d a016 cabc fd3a 0c3f
00000040: d9f0 993e 04a1 913e b676 db3d e7fa 013f
00000050: 1335 c33e d39d d23e 0e0d f53e 6b0d 0b3f
00000060: 9ddb 6e3e bbcc c93e 2f73 f33e 36b6 933d
00000070: ef80 793e 83cf 96bd d9dd b83e 76b9 a0be
00000080: 28f2 cc3e de58 083f 96d0 f1bd d0c5 d93e
00000090: 2dbf 02bd 6c37 0c3f 3167 623e f4f3 ca3e
000000a0: d7a7 8ebe bea4 0b3f f44e f7bd 565e 7a3e
000000b0: 3481 f33e b390 a53e a993 f73e eb98 003f
000000c0: 163b 6bbb 97bf d63e c8df e73d 384e 10bf
000000d0: 3c78 07bd 9f1b 143f bf5b a03e 49aa 223e
000000e0: d8cd 83bc 7d58 303d b996 653f dcd1 c13e
000000f0: 2174 a53e 5802 2c3f 248d e33e bb87 853e
00000100: 3914 b33e f0fb 323f 0c17 233f b0af aabc
00000110: 0d47 d43c 0f17 e93e a481 113d d123 a43e
00000120: 6aa4 11bf deb1 d0be 2dab f33e 786a a23e
00000130: c6e3 7e3e caea ad3e 4546 893e ae2a 093f
00000140: 94fb 043f 2acc a9bc 59b6 c23e c130 073f
00000150: e064 d63c 3fd5 f73e b98e 813d 83ed d23e
00000160: eeda 6d3e 65ee 843e 74bf a23e 8dbe b73e
00000170: 5112 8d3e 9f1a 073f d3f4 053f e6ac a33e
00000180: c01d bb3e 6ee8 c93e 688b e03e 0705 9b3e
00000190: d56a bc3e f0db db3e 4677 2a3f a817 033f
000001a0: 36f9 b23e 113a 233f e7da aa3e e3a7 40bd
000001b0: 585f 543e 3771 2f3e 6ef6 abbd 7edc d63e
000001c0: 1dd4 423f 404d dfbd 9f3c c33e 32ec b03e
000001d0: c08b d93e c32f ce3e e1d1 12be c731 683e
000001e0: 88db 133f e4ac 10bd ebc0 893e e251 123f
000001f0: 03bc fc3e e1cc ef3e ecab ea3d b0cc 163f
0.41017038 0.57041276 -0.113241926 0.47108525 0.56004924 -0.059576552 0.3732724 -0.003038928
0.4443891 0.47356698 -0.04727061 0.47749496 0.43358517 0.11512788 -0.024668992 0.5477751
0.30066565 0.28443158 0.10716002 0.5077347 0.3812643 0.41136035 0.47861522 0.5431735
0.23325963 0.3941401 0.47548816 0.07212488 0.2436559 -0.073637985 0.36106756 -0.31391495
0.400285 0.532606 -0.11807363 0.4253373 -0.0319206 0.5477207 0.22109677 0.39639246
-0.27862427 0.5454825 -0.12075606 0.24450049 0.47559512 0.3233696 0.48354843 0.50233334
-0.0035893372 0.41943046 0.1132198 -0.5636935 -0.03307365 0.57854646 0.31319997 0.15885271
-0.016089365 0.04305314 0.8968311 0.37855422 0.32315162 0.67191076 0.4444362 0.26080117
0.34976366 0.69915676 0.6370704 -0.020835727 0.025912786 0.45525405 0.035524026 0.32058576
-0.568915 -0.40760702 0.47591534 0.31721854 0.24891576 0.33968192 0.26811424 0.5358075
0.5194638 -0.020727236 0.38029745 0.5280877 0.026171148 0.4840488 0.0632605 0.41196832
0.23228046 0.2596313 0.31786692 0.35887566 0.27553037 0.52774996 0.523267 0.3196785
0.36546135 0.39435142 0.4385636 0.30277273 0.36800256 0.42941236 0.66588247 0.5120797
0.34955758 0.6376048 0.33370134 -0.04703511 0.20739496 0.17133032 -0.08396612 0.41965097
0.7610491 -0.10903406 0.38132188 0.34555203 0.42489433 0.40270814 -0.14337875 0.22675239
0.57756853 -0.03532113 0.26904997 0.57156193 0.49362192 0.46835998 0.11458573 0.5890608

fc3.weight f4 [64, 128]
00000000: d3b6 5e3d 490c 2abd 9e97 233d 16b8 52bd
00000010: e043 33bb 4d88 8ebd 5e4c 3e3d 80cf 8c3b
00000020: 701e a73b d913 80bd e271 1a3d 287b 9dbc
00000030: 3b7a debc 6242 3e3d f834 a6bd a73b 933c
00000040: abc0 63bd f9ed 0f3d 2045 b33c 34e0 c4bb
00000050: 0487 1ebd 721c bebc 588d 033d 4a0f 323c
00000060: 8380 0a3d e68c 5b3d 36f5 2abd 9c93 603c
00000070: 9083 a8bc 0ea7 563d b017 703c 0f04 b7bd
00000080: ba9f adbd bc9f a5bc f099 a0bb c645 d2bc
00000090: 1963 3a3d 6615 babd de24 9a3d 62bc 17bd
000000a0: e19b 12bd 6af9 babd 6cfb 94bc 9b2f b2bc
000000b0: de5c 95ba 3ad8 193d 1ce7 a0bc e78e 17bd
000000c0: a5e3 5cbd 6300 8b3d 9da0 b0bd 5d08 d6bc
000000d0: aff3 9cbd 991b fbbc 7c1b 4fbd 8d55 85bd
000000e0: 4c91 d2bc fb5d adb9 e25d 50bd 98d6 06bd
000000f0: ad48 bebc 0657 12bd 988b 183c 159f 56bd
00000100: 56e5 3f3d 4762 933d 0487 d4bb 98af c73c
00000110: ac4b 07bd 5261 483d 97c9 3abd 8b77 4abd
00000120: ce45 cdbc 7c14 963c fb09 b53c 8209 3dbd
00000130: f2d6 abbd e301 66bd 66ab 0a3c e9b6 453d
00000140: 5f98 0c3d e40d 84bd 5dcb 1f3d 3ab8 83bd
00000150: 3a4c 9f3d e8e0 973c 03f8 34bd 4b5d 1f3b
00000160: 3267 67bd 572d cc3c 4b35 053d 7a9f 833c
00000170: 47f3 943d a2f3 7c3d 00f8 1dbc 24a4 fc3c
00000180: 6a0e 553b 0970 73bd ef09 04bc 543b bfbd
00000190: 6199 e53b 11af 24bc d650 6b3d 9438 8a3c
000001a0: 4b19 d63b 141f 74bd 21a5 83bc f075 8abb
000001b0: ba0e 783d 42d4 413d 3d9c a6bd 9ac1 c1bd
000001c0: 52c9 a23d 6e53 363d 2514 b9bd 5142 adbd
000001d0: 40de 823b 8233 613d 88a6 b43c b1da 30bd
000001e0: ef28 753d 7989 123d 1d04 673c d43e 083d
000001f0: 9ebc 763d 43ad 6bba 84fb 9f3c 807f 07bd
00000200: 84a8 e73c 291b 9f3d 57a1 0bbd 1e52 8ebd
00000210: e9f5 cfbd bcef 86bd 4772 863d 84b9 b43c
00000220: a5ae 8abd bb0d 9a3d a8a9 5abd 85f3 503d
00000230: 504b 9ebd cf19 7d3d 4789 ec3c 5083 06bc
00000240: 309e 6d3d 5339 983b 882f cc3b 7683 f6bc
00000250: 9283 80bc d297 91bd 54c1 7abc ae85 c1bd
00000260: dad1 693d 4b01 b63c 4a8d 74bd 2f3e 883b
00000270: d805 b239 5334 d03b 4299 693d b66a 863d
00000280: b325 c4bd e365 51bc 484b 0a3d 0563 05bd
00000290: 1f22 1dbd 02e3 943d 2c74 b1bd 2faf 25bc
000002a0: 1443 8d3c a5a6 253d 00d0 3e3d fd98 95bd
000002b0: 955b fa3c 6c0c 99bc 26ad d2bd a132 833d
000002c0: 21ff c2bc f2d2 b6bd 0656 87bd cc71 5a3b
000002d0: 224d 1f3d 685b 9e3a 962f 733d e0f9 c6bd
000002e0: 31fc a43d ba16 a9bd 9596 fc3c 052b 20bd
000002f0: 346a 2e3d 0195 563c 9f6c 1d3c adeb fcbb
00000300: 372f d73c 5207 0a3d a4d7 b03c 18df 98bd
00000310: 7543 743c 19f7 7cbd e335 f03c 4e7f b9bd
00000320: 988a 133a e385 80bb 76b8 d6bb 64be 0e3b
00000330: 6ac5 233d 6cb0 463d f9cf 0f3d 90bf 9dbd
00000340: b8bc c3bc c423 8fbd 91d5 6f3d ecd1 37bd
00000350: 6984 783d 4f92 2a3c 283c 4ebd ff5b 933d
00000360: 998f 353d 81c0 efbc 0de8 d9bd 7de8 733d
00000370: ad13 c03c c365 8abd d5b2 36bc 1fa3 b7bc
00000380: 0bbe adbd 565f a5bb bee5 5a3d e9d3 a9bd
00000390: a4b5 01bc c32f 0b3c 36a4 cd3d 364d c83c
000003a0: faf5 91bd 08c0 bdbd ede5 833d c32e 43bd
000003b0: d055 873c d7ea 723d e875 b6bc b368 60bc
000003c0: fb86 b7bc 7fb4 ae3d 921a e43c 8eab ecbb
000003d0: 9603 223d 1be4 00bd d144 2d3d 7e28 a9bd
000003e0: ce2c bb3b 9445 2f3d c8ed 643d a487 2abd
000003f0: 2bc6 0e3d 1883 58bc 4a6f abbb 6b81 5d3d
0.054373574 -0.041515622 0.039939515 -0.05144509 -0.002735369 -0.06959591 0.04645955 0.004297197
0.005100064 -0.06253786 0.037706263 -0.019223765 -0.027157893 0.046450026 -0.08115572 0.01797278
-0.055603664 0.035139058 0.021883547 -0.0060081724 -0.03870298 -0.023206923 0.032117218 0.010867903
0.033813965 0.053601168 -0.041737758 0.013707068 -0.020570546 0.05240541 0.014654085 -0.08936321
-0.08477731 -0.020217769 -0.0049011633 -0.025668036 0.045504663 -0.09086113 0.07526563 -0.03704489
-0.03579319 -0.09129603 -0.018186294 -0.021751216 -0.0011395474 0.037559725 -0.019641452 -0.037001517
-0.053928036 0.06787183 -0.086243846 -0.026127035 -0.076636665 -0.030652808 -0.05056332 -0.06510458
-0.025704049 -0.00033067152 -0.050870784 -0.032919496 -0.023228014 -0.035727523 0.0093106255 -0.052397806
0.04684957 0.07196479 -0.0064858217 0.024375722 -0.03303115 0.048920937 -0.045602407 -0.04943041
-0.0250577 0.018320315 0.022099486 -0.046151645 -0.08390607 -0.056154143 0.008463716 0.04827014
0.034325 -0.06447962 0.0390123 -0.06431623 0.07778211 0.01853986 -0.044181835 0.0024317082
-0.0564949 0.024923963 0.032521527 0.016067255 0.07272964 0.061755784 -0.009641647 0.030839987
0.0032509812 -0.059433017 -0.008059009 -0.09337488 0.0070068096 -0.010051505 0.057450138 0.016872682
0.006533777 -0.05959995 -0.01606995 -0.004225485 0.06056092 0.047321565 -0.08135269 -0.09460755
0.07948555 0.04451316 -0.090370454 -0.084599145 0.0039937794 0.054980762 0.022052065 -0.04317731
0.05985349 0.035775635 0.014100102 0.033263043 0.060238473 -0.00089903566 0.019529112 -0.033080578
0.028278597 0.07768852 -0.034089413 -0.06949256 -0.101543255 -0.065886945 0.065647654 0.022061117
-0.06771592 0.0752215 -0.053384453 0.05101349 -0.077292085 0.06179219 0.028874053 -0.008210018
0.058012187 0.0046455055 0.006231252 -0.030091982 -0.015687738 -0.071090356 -0.015304882 -0.094493255
0.057084896 0.022217413 -0.059705056 0.0041578035 0.0003395516 0.006353894 0.057030924 0.06563322
-0.09577503 -0.012780639 0.0337632 -0.032565136 -0.03836262 0.07269861 -0.08664736 -0.010112568
0.0172439 0.040442128 0.046585083 -0.07304571 0.030561248 -0.018682681 -0.10286932 0.06406141
-0.023803296 -0.089269534 -0.066082045 0.0033331988 0.03889192 0.0012081685 0.059371553 -0.097156286
0.08055914 -0.08256288 0.030833522 -0.039103527 0.042581752 0.013097049 0.009608417 -0.0077185244
0.026267631 0.033698387 0.0215872 -0.07464427 0.014908661 -0.06175909 0.02932257 -0.090574846
0.0005628257 -0.0039222105 -0.006552751 0.0021780962 0.03998319 0.048508093 0.035110448 -0.07702553
-0.023893699 -0.069892436 0.058553282 -0.04487793 0.06067315 0.010410859 -0.05035034 0.07195281
0.0443264 -0.029266598 -0.10639963 0.05954789 0.023446882 -0.06757691 -0.011151035 -0.02241665
-0.084835134 -0.0050467653 0.053441755 -0.08292372 -0.007916842 0.008495274 0.100410864 0.02445088
-0.071269944 -0.09265143 0.06440339 -0.047652017 0.01652041 0.059305992 -0.022273019 -0.013696837
-0.02240323 0.08530521 0.027844701 -0.0072225993 0.0395542 -0.03146754 0.042301957 -0.082596764
0.0057121282 0.042790964 0.05589083 -0.041633263 0.034856956 -0.013214849 -0.0052317725 0.0540785

fc3.bias f4 [64]
00000000: 9f8f aabc af46 493d ac89 a93d ff91 5c3e
00000010: f647 acbd 1136 973d ab48 b33c dd4f 873e
00000020: d172 813e 0335 dcbb dcdf 48be 95bf 483e
00000030: 380f ae3c e42f 233e cf5d 403c 9285 b63e
00000040: 5708 643e 970f 5a3e 6b0c 713e d06d 3fbd
00000050: 3e75 983d da14 c3bd 140a 9c3e 9f4b 713d
00000060: d60e 183d 30dd b4bd 8cb9 b93e d1a4 5e3e
00000070: 079c c13c b821 913e 2f5e 2c3e b5b6 c9be
00000080: b241 403d 561f a5bd 7b2b 453e 0b2c 973e
00000090: f08c d6bc 6555 943e 9080 b43e b117 d1bd
000000a0: 09b6 c23e 78f6 b93e 64c5 b0bd acca 3f3e
000000b0: 1b29 423e f70e aa3e fc64 3b3e c1b3 9e3e
000000c0: f188 903e 74be 1bbd ae02 9d3a 46d8 03bf
000000d0: 2b4e 2fbe fd34 673d b775 9f3e 3567 05bc
000000e0: 64e7 9f3e ec47 cb3e 6367 063f c40d 6c3e
000000f0: f2a9 4d3e c977 403d 1ffc cf3e b153 6a3e
-0.020820437 0.049139675 0.08278212 0.21540068 -0.08412163 0.07383359 0.021885237 0.26428118
0.2528291 -0.0067201867 -0.19616646 0.19604333 0.021247491 0.15936238 0.011741116 0.3564878
0.22268806 0.2129501 0.23539893 -0.046735585 0.07444237 -0.095254615 0.3047644 0.05891001
0.037123524 -0.08831251 0.36274374 0.2174256 0.02363397 0.28346038 0.16832803 -0.39397207
0.046937652 -0.080626175 0.19254868 0.2952579 -0.026190251 0.289714 0.35254335 -0.10209597
0.38029507 0.36320853 -0.08631399 0.18729657 0.18960993 0.33214542 0.18300241 0.30996516
0.28229478 -0.038023427 0.0011978948 -0.5150188 -0.17119662 0.056447018 0.31144497 -0.008142282
0.31231225 0.3970331 0.52501506 0.23052126 0.2008436 0.046989236 0.4062204 0.22883488

fc4.weight f4 [3, 64]
00000000: 33dc 99bc 62f9 933d 708b 9dbb 67d0 ff3c
00000010: 4062 22bb 6644 ed3d c069 eabd 3818 b2be
00000020: 1c6c 373e 4507 363d 2131 d23c a5f8 66be
00000030: b9ec 7e3d 118a b9be e6dd 063d 6e5b 173e
00000040: fc32 6e3d fb3f b33e a885 d33e a71d 3f3d
00000050: 2eb2 8bbe f94c 943c fa9f 46bf 1273 8a3f
00000060: a157 8a3d d059 273c 01f3 ac3d d5c0 d23d
00000070: bef9 6dbd cc3f 5e3e 9c28 0fbd 3a61 74bc
00000080: ece6 8a3d 34d3 0ebd bfd5 753b 2297 1a3e
00000090: 80ea 4f3d f132 8bbe 8ee8 1b3e b418 6ebd
000000a0: 6d7b 7ebe d79b 31be 1af9 51bd fd2d 2ebe
000000b0: 2d48 a13d 5c35 a73e 63b9 59be 6e60 703e
000000c0: 5107 3ebe 81d3 acbd 79ee 7ebd aaf0 81bd
000000d0: fa45 fc3e 526a 983d c53b b9bd 0f95 9ebd
000000e0: bab2 333e a7ec 9cbe 6449 56be 4caa 023e
000000f0: c840 503e 0dfd cb3e f448 9cbe 464f 2abe
00000100: ef94 ae3d 0ae8 9f3d 8ff5 c33e 4a2f 46be
00000110: 7409 b5bd b058 ed3c 052b 9b3d abb2 193e
00000120: 306b 25be c7e3 a03c cfd9 313e ec24 0ebe
00000130: 5833 88bd b887 36be 139b e63d 7d14 6f3c
00000140: ebb4 98bd 58d7 56be d4bd a73c 64ad bbbd
00000150: 73f3 94bb b9fb 03bd 9a69 c53e c87a 133f
00000160: e640 493d d5f9 123d bd21 b4bd a778 56be
00000170: 6784 813d 9c4d 4bbe 46ad e93e 0f7b dc3e
00000180: f4db 953d 0bfe 023c 51c2 29be 0fe5 22be
00000190: 8c0d 6cbd 3acf 53bd 2f9a e1bc 81ab 143d
000001a0: 5c39 c6bb c4c4 d93b e1f1 e63d 6edf eabd
000001b0: 396c 5cbe d5e9 f7bd 6e43 17be 5c89 4c3d
000001c0: 21ef 5ebe e04a 813d 6b2e 123c 648a 2bbe
000001d0: bab1 9e3e d9e6 c4bd 1668 18be 1614 243f
000001e0: fab2 f4bd 948a 9abd 4b3b 63bd 1625 3bbe
000001f0: a6bc 8bbe b85f 92bc f212 d73c 6866 d0bc
00000200: 1a8e 27bc 34a8 ddbc 9f3e 70be b746 ad3d
00000210: 08d8 5d3d 303b 4a3d 1868 d4bc 0b00 233d
00000220: 5223 b83d 686e a7bd 695f 3abf 75de 013e
00000230: 91bb 75bd 1f17 49be 309d debd 07fd 853e
00000240: 0b0f 513e 078c 80be 6e27 043d cd81 aabd
00000250: 6226 77bd 2748 283c 1534 06be fae7 21be
00000260: f86f 69bd 5cf7 f0bd 7ab4 563e f0df 393e
00000270: a0b3 9fbc fc4c 043e f591 17be f05d 37bf
00000280: e459 ab3d 4ef3 7abb bcd2 843d 6c20 573e
00000290: 74e8 d8bd 5ff0 0e3d faf4 4a3e 6233 a0bd
000002a0: e13e e33d 9b44 293e e176 bcbd 1347 623e
000002b0: 9bbf 103e 5820 233e 9b6c 013c 001a 8f3e
000002c0: 43d9 a93c 8ade 95bd 5511 9cbd ab7c c1be
000002d0: 7c17 7bbe 98c7 bdbd bcad 793e 299d a2be
000002e0: 61d1 193e 69f8 c53d 6fdb 0f3f 4e2c 203e
000002f0: c42d 6e3c fb48 b83b 7b3a 3fbb 863b 743e
-0.018781757 0.072253 -0.004807882 0.031227304 -0.00247778 0.115853116 -0.114459515 -0.34784102
0.17912334 0.044440527 0.025658192 -0.22555788 0.062237475 -0.3623815 0.032926463 0.14780971
0.05815409 0.3500975 0.4131291 0.046659138 -0.27284378 0.01810311 -0.77587855 1.0816367
0.06754995 0.010214284 0.08444787 0.10290686 -0.0580995 0.21704024 -0.034950837 -0.014915759
0.06782326 -0.034869388 0.0037511436 0.15096715 0.050760746 -0.27187303 0.15225431 -0.058129027
-0.2485177 -0.17344604 -0.051262952 -0.1700973 0.078750946 0.32657897 -0.21262126 0.23474285
-0.18557478 -0.08438779 -0.062239144 -0.06344731 0.49272138 0.07442154 -0.09044603 -0.077432744
0.17548648 -0.306493 -0.20926434 0.12760276 0.20337212 0.398415 -0.3052441 -0.16631803
0.085245006 0.0780793 0.38273284 -0.19353977 -0.08839694 0.028972954 0.07576565 0.15009563
-0.1615417 0.019639863 0.17368244 -0.13881272 -0.06650418 -0.1782521 0.11260047 0.014592287
-0.07456382 -0.20980585 0.02047626 -0.09163931 -0.004545623 -0.032222483 0.3855713 0.57609224
0.049134158 0.03588279 -0.087954976 -0.20944463 0.06324082 -0.19853824 0.4564001 0.43062636
0.07317343 0.007995139 -0.16578032 -0.15907691 -0.057630107 -0.0517113 -0.02753934 0.03629637
-0.0060493182 0.0066457707 0.112766035 -0.11468397 -0.21525659 -0.12105147 -0.14771816 0.049935684
-0.21770908 0.063131094 0.0089222 -0.1675201 0.3099497 -0.09614343 -0.14883456 0.6409315
-0.119481996 -0.07545963 -0.055476468 -0.18275866 -0.27292365 -0.017867908 0.026254151 -0.025439456
-0.010226751 -0.027057745 -0.23461388 0.084607534 0.0541611 0.04937285 -0.025928542 0.039794963
0.08991112 -0.08175355 -0.72801834 0.12682517 -0.05999333 -0.19637726 -0.10869825 0.26169607
0.20415895 -0.25106832 0.032264166 -0.08325539 -0.06033934 0.010271109 -0.13105805 -0.15811148
-0.056991547 -0.1176593 0.20967284 0.18151832 -0.019494832 0.12919992 -0.14801772 -0.7162771
0.08366755 -0.0038291994 0.06485507 0.21008462 -0.10591212 0.034897204 0.19820014 -0.078223005
0.110959776 0.16530077 -0.09202362 0.22097425 0.14135592 0.15930307 0.007899429 0.27949524
0.020733481 -0.073178366 -0.07620493 -0.37790427 -0.24520677 -0.09266585 0.2438268 -0.3176053
0.15021278 0.09666521 0.56194204 0.15641901 0.014537279 0.0056239343 -0.0029179144 0.23850831

fc4.bias f4 [3]
00000000: acf7 e7bd 8e0c 54be 30ad b33e
-0.113265365 -0.20707914 0.3509307
