examples/data/Crane3R/crane3r_model.onnx (onnx, 69022 bytes, 8 tensors)

fc1.weight f4 [64, 3]
0.40652063 -0.04525276 -0.45153964 0.01463901 -0.020722976 -0.072950974 0.45332217 -0.27215567
0.3080791 -0.02371938 -0.21955802 -0.34570858 -0.030223005 -0.021633176 -0.07314942 0.14635924
0.047955018 -0.9048438 0.06843329 -0.019540355 0.28063866 0.31175768 0.3816851 0.36847568
-0.056605145 -0.011332304 -0.061400607 -0.07233264 0.38126743 0.14210048 -0.5411566 0.30317718
0.32373634 -0.28378418 0.15211904 -0.27933374 0.6072655 -0.3401747 -0.34344032 -0.032317415
0.012067268 0.14860097 -0.27219048 0.04850349 -0.39357758 0.083186075 0.24672523 0.20364113
-0.19179362 -0.308052 0.25917906 -0.35377136 -0.29095313 0.5875192 -0.3320917 0.37102628
-0.08386274 -0.025037605 0.3864571 -0.07660261 0.3453823 -0.07216829 0.041861452 0.3162953
-0.0003451646 -0.6261516 -0.47372106 0.1341253 -0.4135869 0.60755485 0.43061465 0.28291836
0.12953933 0.43524155 -0.06702154 -0.00016708211 -0.0761939 0.36039135 0.025642946 0.16482818
-0.37388447 -0.23692805 0.3791121 0.098361626 -0.033844672 -0.15555233 -0.1990668 0.42822808
0.19212194 0.09177713 0.05635553 0.059918355 0.056601536 -0.10082112 0.4360632 -0.4937709
-0.002762601 -0.083692975 0.40951002 0.12780826 -0.016058888 -0.10082074 0.338083 0.21966445
0.35361254 -0.4705912 -0.31019524 -0.093477525 0.3342426 -0.8674459 -0.32967916 0.3590749
-0.22340062 -0.90111566 -0.02933699 0.52730405 -0.06914319 -0.60861814 0.04761389 0.13325486
-0.065393366 -0.29138437 0.4363843 -0.13457371 -0.29521865 0.53878665 0.26942995 0.5518837
0.4453031 0.5915554 0.23987375 -0.29101646 0.4404321 0.4192553 0.3649723 -0.6839315
-0.24361297 0.09954883 0.30385193 -0.4588542 -0.02563045 0.18002407 0.44935304 -0.17811367
0.07492631 -0.20578697 0.37256637 -0.57376665 0.046422627 0.42759067 0.009745255 -0.11612563
0.34443265 0.120901786 0.27126795 0.53410435 0.46087873 -0.22093953 0.30059627 -0.06286126
-0.0036642107 -0.06934306 -0.29478702 0.3386853 0.3133954 0.16656779 -0.07013955 0.5952493
0.00035687114 -0.071821265 0.20819412 -0.032858543 -0.035055354 0.19248419 0.31192935 0.58661735
0.55145633 0.341457 0.08352417 -0.07527426 0.11576134 -0.18314007 0.00264628 0.38719565
-0.076726355 0.5143861 -0.23285994 -0.0013779365 -0.4529524 0.33442065 -0.038048174 -0.14007936
00000000: 7923 d03e f55a 39bd 3430 e7be 75d8 6f3c
00000010: 3bc3 a9bc 5267 95bd d819 e83e fd57 8bbe
00000020: 8bbc 9d3e 254f c2bc d1d3 60be b700 b1be
00000030: 3c96 f7bc 0f38 b1bc 5dcf 95bd 32df 153e
00000040: 7b6c 443d d8a3 67bf c126 8c3d 1813 a0bc
00000050: dfaf 8f3e b49e 9f3e 3b6c c33e d8a8 bc3e
00000060: ccda 67bd 21ab 39bc 347f 7bbd 2323 94bd
00000070: 7c35 c33e ca82 113e 3d89 0abf 0a3a 9b3e
00000080: c5c0 a53e 294c 91be 18c5 1b3e d504 8fbe
00000090: c075 1b3f 612b aebe 69d7 afbe 445f 04bd
000000a0: cab5 453c da2a 183e 8d5c 8bbe 98ab 463d
000000b0: 0083 c9be 765d aa3d 8aa5 7c3e 4d87 503e
000000c0: 8c65 44be feb8 9dbe 1eb3 843e 8521 b5be
000000d0: cff7 94be a967 163f ec07 aabe 28f7 bd3e
000000e0: 3ac0 abbd aa1b cdbc b4dd c53e d4e1 9cbd
000000f0: f3d5 b03e f8cc 93bd ea76 2b3d 75f1 a13e
00000100: 35f7 b4b9 794b 20bf 918b f2be 2558 093e
00000110: aac1 d3be b788 1b3f 8679 dc3e adda 903e
00000120: f5a5 043e fbd7 de3e 9742 89bd c332 2fb9
00000130: 8c0b 9cbd 3785 b83e 2811 d23c b8c8 283e
00000140: c96d bfbe 449d 72be fb1a c23e d271 c93d
00000150: b6a0 0abd 1c49 1fbe 2bd8 4bbe b640 db3e
00000160: 9dbb 443e a6f5 bb3d 0ed5 663d f36c 753d
00000170: 03d7 673d 4e7b cebd ad43 df3e 8acf fcbe
00000180: c10c 35bb 3967 abbd 4cab d13e 2be0 023e
00000190: ee8d 83bc 1b7b cebd 3719 ad3e b8ef 603e
000001a0: b40c b53e 54f1 f0be e9d1 9ebe 2571 bfbd
000001b0: d921 ab3e ef10 5ebf b5cb a8be aad8 b73e
000001c0: 22c3 64be 84af 66bf 2154 f0bc 66fd 063f
000001d0: f29a 8dbd 66ce 1bbf c806 433d f673 083e
000001e0: f5ec 85bd 5530 95be c36d df3e b1cd 09be
000001f0: e626 97be eced 093f b9f2 893e 4048 0d3f
00000200: c5fe e33e 2d70 173f 77a1 753e 1c00 95be
00000210: 5180 e13e a1a8 d63e a6dd ba3e 2316 2fbf
00000220: ae75 79be 42e0 cb3d 7b92 9b3e f0ee eabe
00000230: f3f6 d1bc 3b58 383e 9a11 e63e 6e63 36be
00000240: f772 993d d2b9 52be 05c1 be3e 5fe2 12bf
00000250: a725 3e3d 2aed da3e 90aa 1f3c 46d3 edbd
00000260: 7a59 b03e 5b9b f73d a2e3 8a3e 10bb 083f
00000270: 4cf8 eb3e f93d 62be c1e7 993e 67bd 80bd
00000280: 4123 70bb bc03 8ebd 53ee 96be 2968 ad3e
00000290: 5d75 a03e bf90 2a3e 53a5 8fbd 4262 183f
000002a0: 6f1a bb39 0717 93bd d730 553e ae96 06bd
000002b0: 3496 0fbd 931a 453e 34b5 9f3e 8e2c 163f
000002c0: 3e2c 0d3f 74d3 ae3e b80e ab3d 6429 9abd
000002d0: 4814 ed3d 1289 3bbe 366d 2d3b 823e c63e
000002e0: b522 9dbd cfae 033f d672 6ebe e09b b4ba
000002f0: 61e9 e7be 2f39 ab3e 67d8 1bbd f770 0fbe

fc1.bias f4 [64]
0.9555067 0.94497615 -0.38863114 0.9894632 1.0257902 0.46595857 1.0501598 0.11867702
1.0088698 0.8113581 -0.3992186 -0.22185577 0.3017804 0.2809853 -0.1686186 1.0450258
0.19132698 -0.18530521 -0.37586945 0.95844376 0.40971988 0.653962 1.0511775 -0.50795597
0.14369366 0.9937175 0.87563175 -0.026408564 1.1863464 0.9210386 1.0210586 0.51937336
1.1069167 0.40194362 0.1662123 0.40866396 0.34520993 0.5191221 0.8234498 -0.2773901
-0.34098366 0.47188762 0.64135313 0.14779367 -0.31394473 -0.6120473 0.58107847 -0.3945107
-0.024879161 -0.073937744 0.7903938 -0.4306165 0.37116995 1.0804983 0.9719145 -0.381616
0.94685525 0.6918555 0.37088075 0.87028563 1.0732558 -0.1178914 0.9568483 0.7950549
00000000: 169c 743f f5e9 713f a9fa c6be 764d 7d3f
00000010: 184d 833f 1f92 ee3e a36b 863f f00c f33d
00000020: a522 813f 2ab5 4f3f 6166 ccbe 292e 63be
00000030: f682 9a3e 4edd 8f3e 5baa 2cbe 68c3 853f
00000040: 38eb 433e a6c0 3dbe f671 c0be 925c 753f
00000050: cec6 d13e 0e6a 273f fc8c 863f 6709 02bf
00000060: 6e24 133e 4564 7e3f 6729 603f c656 d8bc
00000070: 33da 973f 30c9 6b3f 0cb2 823f a7f5 043f
00000080: 72af 8d3f 8ecb cd3e 8f33 2a3e 673c d13e
00000090: 5bbf b03e 30e5 043f 9bcd 523f 1306 8ebe
000000a0: 6995 aebe 419b f13e b82f 243f 3957 173e
000000b0: 5dbd a0be 22af 1cbf 8fc1 143f 4efd c9be
000000c0: 62cf cbbc ac6c 97bd 4057 4a3f c479 dcbe
000000d0: fd09 be3e c54d 8a3f 64cf 783f 2c63 c3be
000000e0: 1b65 723f 711d 313f 15e4 bd3e 0acb 5e3f
000000f0: 7260 893f 0c71 f1bd 03f4 743f b888 4b3f

fc2.weight f4 [128, 64]
-0.061485462 0.8266175 0.016241075 0.31874067 0.56993335 -0.17834957 -0.0068583423 0.06689846
0.65144217 0.05864833 -0.12499302 -0.23908381 0.07755632 -0.013979912 -0.1403275 0.16571806
-0.16244873 -0.09609517 -0.21490692 0.01340076 -0.18557267 -0.040195387 0.12342658 0.009444331
-0.17806734 0.17140326 0.1408696 -0.11067827 -0.14554483 -0.098878376 0.18338615 -0.10728751
0.2387782 -0.08908182 -0.088900484 0.0004892043 -0.17816533 -0.16464457 0.07471286 -0.07096038
-0.10658052 0.042364936 0.04736049 0.08728827 -0.13576384 -0.1614524 -0.075010605 -0.12003838
-0.18254489 -0.07417358 -0.051773693 0.011877176 -0.03952636 0.5503968 0.09006289 -0.030064201
0.35062468 0.040580943 0.042658355 0.15077287 -0.54465836 -0.01436828 0.11940542 -0.03811416
0.021319583 -0.05022768 0.094025224 -0.068570346 -0.033856224 -0.10096824 -0.0034124702 0.02584979
-0.07034823 -0.11196033 0.07134847 -0.035322502 -0.06053199 0.08986529 0.018386625 0.11754784
0.021519715 -0.119082265 -0.07552415 0.039495595 -0.099730834 0.030613765 0.04057287 0.12128645
0.10455615 -0.051729903 0.041033812 -0.08624247 -0.045519903 -0.08179593 -0.022931091 0.09451511
-0.022480235 -0.09082343 -0.07695249 0.09458046 0.09055711 0.08531958 -0.12812614 0.029429318
0.0035642833 -0.015546292 -0.099944785 -0.03193195 -0.07541464 -0.079159744 -0.0023195595 -0.044767052
0.07806781 -0.07038387 0.095126 -0.00034775867 0.027414873 -0.102533184 0.10417352 -0.086575806
-0.023129717 0.0558607 -0.038071275 -0.038153067 0.068205595 -0.018982425 -0.04084475 0.026533842
-0.12824593 -0.011666434 0.07102144 -0.026543682 0.107518606 0.082390085 0.018245623 0.084878065
0.07408413 -0.01701435 0.058375835 -0.072956294 -0.06763984 -0.09920569 -0.056116153 -0.08113691
-0.08416509 -0.098412156 -0.123151325 -0.099509 -0.1056259 -0.12617885 -0.04573203 -0.040382802
-0.11621215 -0.044762235 0.003717292 0.03723739 -0.04717794 0.0286106 -0.05396526 0.084654264
-0.11341433 -0.06468205 0.05779098 0.09766724 -0.00721626 -0.08039429 0.057304967 0.09186449
-0.024691103 -0.015582876 0.0698073 0.04643542 0.003755025 -0.016147586 0.11076447 -7.674637e-05
-0.041241325 -0.035263583 -0.12186857 -0.09371497 0.011004268 0.053188786 -0.04692806 0.0055052326
-0.055248998 -0.030640645 -0.068675704 -0.08291501 0.026440084 0.11117475 0.060824994 -0.078729294
-0.008044818 0.020678407 -0.08169847 -0.5171967 0.5188842 0.089429334 0.16128771 0.058423743
0.3049871 -0.007250903 0.13412848 0.04003831 0.052226037 0.07584097 -0.030345088 0.092456356
0.03918001 -0.250737 -0.023452997 0.17352356 -0.057719924 0.21428047 0.0029564262 -0.0997687
0.003960208 0.031680632 -0.08956361 0.0047872323 -0.09518414 0.0491976 0.019686973 0.037178084
0.09951023 0.04994049 0.09370201 -0.017957846 -0.05390196 -0.020948147 0.1415774 -0.1859869
0.03480058 -0.076602325 0.12610966 -0.063960955 -0.026269719 -0.042475123 -0.09444081 0.08485984
-0.007978994 -0.05366288 -0.06424343 -0.13371837 -0.06000719 0.3899635 0.023120925 -0.06806222
0.097872265 -0.0196718 -0.010395087 -0.09346285 0.4653853 0.03469801 0.12207917 0.07603359
00000000: 2ed8 7bbd 349d 533f 010c 853c fa31 a33e
00000010: 27e7 113f 45a1 36be f2bb e0bb 0f02 893d
00000020: eac4 263f 3b39 703d 57fc ffbd 63d2 74be
00000030: d9d5 9e3d 000c 65bc 03b2 0fbe ffb1 293e
00000040: f658 26be 8bcd c4bd 8f10 5cbe dc8e 5b3c
00000050: c306 3ebe eba3 24bd 13c7 fc3d 65bc 1a3c
00000060: 4957 36be 5684 2f3e 1f40 103e 4aab e2bd
00000070: b409 15be bf80 cabd 94c9 3b3e 8eb9 dbbd
00000080: 4682 743e 8770 b6bd 7511 b6bd f23d 003a
00000090: f970 36be 9698 28be 0e03 993d ad53 91bd
000000a0: e346 dabd db86 2d3d 13fd 413d 31c4 b23d
000000b0: ad05 0bbe c753 25be 299f 99bd afd6 f5bd
000000c0: 0ced 3abe 51e8 97bd a710 54bd 7d98 423c
000000d0: 64e6 21bd cee6 0c3f e472 b83d 3349 f6bc
000000e0: 1485 b33e 3438 263d 87ba 2e3d 3464 1a3e
000000f0: bb6e 0bbf ef68 6bbc d48a f43d 981d 1cbd
00000100: 68a6 ae3c 8abb 4dbd 4c90 c03d 9c6e 8cbd
00000110: d3ac 0abd 70c8 cebd c0a3 5fbb f0c2 d33c
00000120: bc12 90bd 754b e5bd 261f 923d 54ae 10bd
00000130: 64f0 77bd 4b0b b83d 8c9f 963c ecbc f03d
00000140: 1d4a b03c 67e1 f3bd 68ac 9abd 22c6 213d
00000150: ae3f ccbd b8c9 fa3c bd2f 263d 0865 f83d
00000160: 8921 d63d bce2 53bd 1213 283d e49f b0bd
00000170: 1473 3abd a084 a7bd fcd9 bbbc 2391 c13d
00000180: 7828 b8bc a201 babd 4499 9dbd 66b3 c13d
00000190: 0276 b93d 08bc ae3d 8033 03be c115 f13c
000001a0: c096 693b e0b5 7ebc daaf ccbd 14cb 02bd
000001b0: fe72 9abd 811e a2bd c003 18bb a85d 37bd
000001c0: 04e2 9f3d 6b25 90bd 6cd1 c23d 6153 b6b9
000001d0: 2895 e03c ebfc d1bd ed58 d53d a84e b1bd
000001e0: 887a bdbc 30ce 643d a0f0 1bbd 6446 1cbd
000001f0: 60af 8b3d 0881 9bbc d34c 27bd 805d d93c
00000200: e752 03be 9224 3fbc b073 913d 2372 d9bc
00000210: b732 dc3d 22bc a83d d877 953c 8dd4 ad3d
00000220: 6cb9 973d ae61 8bbc 801b 6f3d 1c6a 95bd
00000230: c286 8abd 5a2c cbbd 0dda 65bd 1c2b a6bd
00000240: bf5e acbd 508c c9bd c336 fcbd 60cb cbbd
00000250: 6452 d8bd 0735 01be 8251 3bbd 7068 25bd
00000260: a300 eebd 9b58 37bd d09d 733b 3c86 183d
00000270: a83d 41bd c760 ea3c ad0a 5dbd 375f ad3d
00000280: c645 e8bd 0678 84bd 3cb6 6c3d c305 c83d
00000290: 6076 ecbb c3a5 a4bd 9db8 6a3d 7323 bc3d
000002a0: ff44 cabc 524f 7fbc 21f7 8e3d 1133 3e3d
000002b0: de16 763b f147 84bc 7cd8 e23d e5f2 a0b8
000002c0: aaec 28bd 8c70 10bd 3b96 f9bd a2ed bfbd
000002d0: 3f4b 343c 7cdc 593d a337 40bd 3d65 b43b
000002e0: c64c 62bd 1702 fbbc d9a5 8cbd 58cf a9bd
000002f0: e098 d83c 96af e33d a123 793d d33c a1bd
00000300: 6ace 03bc c365 a93c 8751 a7bd 0167 04bf
00000310: 98d5 043f ba26 b73d 9b28 253e bc4d 6f3d
00000320: 4527 9c3e fc98 edbb fa58 093e 36ff 233d
00000330: f8ea 553d 8352 9b3d 4396 f8bc c259 bd3d
00000340: 387b 203d 9a60 80be 8020 c0bc 29b0 313e
00000350: ba6b 6cbd 576c 5b3e 9ac0 413b 8853 ccbd
00000360: a2c4 813b 8dc3 013d 206d b7bd 37de 9c3b
00000370: e7ef c2bd 6c83 493d 9346 a13c 0c48 183d
00000380: 05cc cb3d 668e 4c3d d7e6 bf3d 551c 93bc
00000390: 4dc8 5cbd 739b abbc aaf9 103e 5a73 3ebe
000003a0: 0e8b 0e3d aee1 9cbd e422 013e f6fd 82bd
000003b0: 9833 d7bc 65fa 2dbd 2f6a c1bd ffca ad3d
000003c0: 54ba 02bc 9ccd 5bbd 0f92 83bd 78ed 08be
000003d0: 19ca 75bd 4ca9 c73e 1868 bd3c 3564 8bbd
000003e0: 4171 c83d c126 a1bc 2850 2abc 7369 bfbd
000003f0: fb46 ee3e 801f 0e3d a504 fa3d 80b7 9b3d

fc2.bias f4 [128]
0.2794963 -0.113037884 -0.027673114 0.12548874 0.13369074 0.09056648 0.337835 0.335955
0.29206172 0.33128047 0.4386006 0.120338365 0.2952768 0.3227586 -0.03911607 0.44961098
0.29583916 0.16149822 0.55251306 0.331367 0.27330476 0.03458262 0.039985843 -0.237251
0.2005955 0.17656812 0.27164578 0.37138298 0.087960504 0.3672281 -0.45182353 -0.062924296
0.29849043 0.0016278825 0.22377643 0.31480455 -0.14244147 0.34850168 0.27438256 0.28000656
0.031924788 0.31823456 0.44117945 0.4957767 0.5700822 0.3570902 0.19323479 0.25445804
0.48435166 -0.10961059 0.36022425 0.10001847 -0.112895705 0.17023405 0.41369796 0.25737584
0.32655364 0.17761548 0.12204444 0.14724523 0.34076327 0.49211708 0.186309 0.09097515
0.2691069 0.11311525 0.29798004 0.16942172 0.37779406 0.06589073 0.37505904 0.28880495
-0.112972856 0.26135123 0.39796448 -0.01647974 0.2679375 0.33529252 0.18227167 0.27443647
0.26253635 0.15583536 0.27150345 0.10828611 -0.13368525 -0.068048164 0.22197595 0.35864276
0.36078763 0.29970327 0.17550635 0.4265596 0.29081488 -0.13102542 0.30302346 0.17056414
-0.045297667 0.20943056 0.24915846 0.2777071 0.22330324 0.34279642 0.03709577 0.34011278
0.38241422 0.34965917 -0.06338611 0.30990553 0.31431788 0.32131374 0.3341203 -0.06326559
-0.0057290285 0.52962023 0.37328124 0.28995612 -0.075958334 0.2465827 0.20414884 0.19945174
0.42090052 0.59850585 0.3608872 -0.022976946 -0.045856986 0.44185767 0.23517965 0.40574104
00000000: 241a 8f3e 6880 e7bd bab2 e2bc 1f80 003e
00000010: 3ae6 083e eb7a b93d b6f8 ac3e 4b02 ac3e
00000020: 1d89 953e 989d a93e 4290 e03e f673 f63d
00000030: 852e 973e 9d40 a53e 2c38 20bd 6933 e63e
00000040: 3b78 973e ca5f 253e 7f71 0d3f efa8 a93e
00000050: 9aee 8b3e 81a6 0d3d 32c8 233d edf1 72be
00000060: e868 4d3e 46ce 343e 2815 8b3e e925 be3e
00000070: a324 b43d 5205 bc3e 6a55 e7be 74de 80bd
00000080: bdd3 983e ac5e d53a a625 653e 102e a13e
00000090: 2ddc 11be d06e b23e df7b 8c3e 055d 8f3e
000000a0: 91c3 023d a4ef a23e 46e2 e13e 72d6 fd3e
000000b0: e8f0 113f 87d4 b63e 57df 453e 5348 823e
000000c0: f1fc f73e 847b e0bd 506f b83e 7cd6 cc3d
000000d0: dd35 e7bd d651 2e3e 38d0 d33e c4c6 833e
000000e0: 0a32 a73e d5e0 353e 6ff2 f93d 74c7 163e
000000f0: 8678 ae3e c5f6 fb3e c9c7 3e3e 2e51 ba3d
00000100: 61c8 893e f8a8 e73d d790 983e e37c 2d3e
00000110: 396e c13e b8f1 863d bd07 c03e 3ede 933e
00000120: 505e e7bd d4cf 853e 00c2 cb3e 8500 87bc
00000130: 1b2f 893e 76ab ab3e 6da5 3a3e f082 8c3e
00000140: 2a6b 863e 4e93 1f3e 8002 8b3e 1cc5 dd3d
00000150: c9e4 08be d65c 8bbd aa4d 633e 06a0 b73e
00000160: 28b9 b83e b572 993e f0b7 333e 0566 da3e
00000170: b0e5 943e 872b 06be e425 9b3e 5ea8 2e3e
00000180: 0c8a 39bd f774 563e 6523 7f3e a02f 8e3e
00000190: 9ba9 643e 0383 af3e bcf1 173d 4323 ae3e
000001a0: cccb c33e 8706 b33e 94d0 81bd f0ab 9e3e
000001b0: 46ee a03e 3c83 a43e d111 ab3e 6491 81bd
000001c0: 93ba bbbb 3195 073f b81e bf3e 2175 943e
000001d0: 0b90 9bbd 2d80 7c3e 650c 513e 143d 4c3e
000001e0: 4680 d73e ae37 193f 35c6 b83e 263a bcbc
000001f0: 89d4 3bbd 2b3b e23e efd2 703e 4abd cf3e

fc3.weight f4 [64, 128]
-0.004443915 0.02856882 -0.059353143 0.044021547 0.013852813 -0.07950672 -0.014052847 0.025752489
-0.06745249 0.039033256 -0.087789066 -0.08133808 -0.04143172 0.0097556515 -0.03913929 -0.0840974
0.020582855 0.07990711 0.06337289 -0.044429198 0.059785627 -0.026622714 -0.029381724 -0.014553035
-0.05010903 0.066957496 -0.0009370932 0.087952025 -0.018937401 -0.0029898554 0.0072172186 -0.0070525706
0.033548236 0.023987994 0.08792696 -0.050949503 -0.005752802 -0.03736733 0.059309028 -0.05474868
0.023106113 -0.082065545 -0.03564917 0.0019503757 -0.06930585 -0.022804372 0.054908127 -0.035085276
0.045989778 0.031187728 0.008730657 0.030189775 -0.034119442 -0.04690525 -0.07936418 0.06278005
0.010918367 -0.001244493 0.062173057 0.075245984 -0.0573707 -0.017107457 -0.071378194 0.06327577
-0.031750664 0.047948185 -0.07922257 0.07665336 -0.009044968 -0.002095113 -0.09251101 -0.025752407
-0.08528864 -0.08449504 -0.072336085 -0.018182466 -0.038165886 0.0483663 0.043279923 0.005554492
-0.0499151 -0.05480116 -0.06311432 0.0059013665 0.008031599 -0.014430605 -0.037003633 -0.0489079
-0.023704512 -0.06450875 -0.08993581 0.008211136 -0.002617702 -0.03469946 0.0028533489 0.047639452
-0.08755592 0.07271713 -0.05958669 -0.051939234 -0.060250282 -0.07195801 -0.08700781 -0.016671516
0.07887567 -0.088362 0.009771496 0.034068182 0.0368861 0.005116864 -0.047259226 -0.0068609565
-0.017858982 -0.025987457 -0.056906126 0.059452854 -0.035048034 -0.019525409 0.016271355 0.01952593
0.080264725 0.029080523 0.07845803 -0.048546184 -0.008897677 -0.08323106 0.07061792 -0.06731014
-0.07102101 0.04070746 -0.066069685 -0.04801354 0.07103557 0.02171038 -0.069745086 0.07685081
0.07595863 0.06198413 0.016902782 -0.06598895 -0.057762317 -0.07648304 0.034265935 0.019965976
-0.006228313 -0.082763545 0.086838506 -0.012458928 -0.027582634 0.040020294 -0.06629276 -0.009283729
0.044741906 -0.028404403 -0.03438658 -0.020532481 0.033228092 0.048909314 -0.0648835 -0.056938253
-0.031754635 -0.05629584 -0.08162053 0.0057903454 -0.057868242 0.0014921352 -0.007908456 -0.02057413
-0.019799367 -0.012233332 0.07386724 -0.041271932 -0.018410057 -0.042178605 0.021800235 -0.019385673
0.05152204 -0.035479754 0.034652032 -0.08109508 0.060555987 -0.08736147 -0.06378782 -0.030788261
-0.041546054 -0.011002265 -0.048583925 -0.004299335 -0.008717097 -0.031854566 -0.018512286 -0.07023552
-0.03859345 0.03062582 0.060434006 0.008678995 0.055824988 0.063612215 -0.030665983 -0.041747708
0.04129707 0.040846445 0.03242804 0.074029304 0.053184398 0.049964197 -0.07019207 -0.0356935
0.086557515 0.00085543096 -0.06666951 0.017526336 -0.058226198 0.008351892 -0.051541433 -0.044150162
-0.08780585 -0.062942326 -0.061274003 0.083447464 0.044362836 -0.05816742 -0.06848483 -0.03430393
-0.0026826784 0.043991454 0.046964027 0.02428893 -0.07696524 -0.070293516 -0.021836907 -0.036889598
-0.04152714 -0.044245888 0.07751935 -0.07184849 -0.021502912 -0.0679056 0.022781618 -0.041960243
0.03824181 -0.036769975 -0.05364086 -0.06740011 -0.0679286 0.0044135004 0.0514827 0.06527468
-0.004132636 0.061026134 -0.032788623 0.0038112998 0.07944412 -0.03320136 0.042046092 -0.04424637
00000000: 439e 91bb 2809 ea3c 481c 73bd f04f 343d
00000010: e9f6 623c 6bd4 a2bd ea3d 66bc e2f6 d23c
00000020: 8824 8abd 56e1 1f3d c1ca b3bd 9494 a6bd
00000030: 4fb4 29bd 2bd6 1f3c 8550 20bd 423b acbd
00000040: 609d a83c 57a6 a33d a5c9 813d 64fb 35bd
00000050: c6e1 743d e117 dabc f1b1 f0bc da6f 6ebc
00000060: 203f 4dbd 0321 893d 43a7 75ba 3120 b43d
00000070: 9c22 9bbc 73f1 43bb 6b7e ec3b 4019 e7bb
00000080: e069 093d 7882 c43c 0d13 b43d 6db0 50bd
00000090: 0082 bcbb 7c0e 19bd 06ee 723d 2740 60bd
000000a0: 0849 bd3c fb11 a8bd dd04 12bd c0a3 ff3a
000000b0: 3af0 8dbd 3cd0 babc 58e7 603d 94b5 0fbd
000000c0: c75f 3c3d 687d ff3c 080b 0f3c 8c50 f73c
000000d0: d4c0 0bbd b81f 40bd b089 a2bd d492 803d
000000e0: f3e2 323c 411e a3ba 2da9 7e3d 911a 9a3d
000000f0: 8afd 6abd f024 8cbc bb2e 92bd ba96 813d
00000100: fc0c 02bd 5165 443d 713f a2bd 70fc 9c3d
00000110: 5831 14bc 2a4e 09bb 6a76 bdbd b6f6 d2bc
00000120: cfab aebd bc0b adbd f124 94bd 65f3 94bc
00000130: d553 1cbd be1b 463d 4a46 313d 7502 b63b
00000140: c773 4cbd 2e77 60bd 1542 81bd 4060 c13b
00000150: f896 033c 586e 6cbc 1f91 17bd a653 48bd
00000160: f72f c2bc 2a1d 84bd 4430 b8bd 0088 063c
00000170: c08d 2bbb 0521 0ebd 40ff 3a3b 9621 433d
00000180: 8550 b3bd b8ec 943d 2c11 74bd 3cbe 54bd
00000190: 00c9 76bd b95e 93bd 2731 b2bd b492 88bc
000001a0: 9189 a13d 23f7 b4bd a018 203c 148b 0b3d
000001b0: e115 173d 5eab a73b e492 41bd e0d1 e0bb
000001c0: 004d 92bc a6e3 d4bc 6616 69bd d684 733d
000001d0: 878e 0fbd c0f3 9fbc 814b 853c d8f4 9f3c
000001e0: d561 a43d 473a ee3c 9bae a03d 5dd8 46bd
000001f0: 90c7 11bc 0c75 aabd 21a0 903d e6d9 89bd
00000200: 7773 91bd debc 263d 8b4f 87bd d9a9 44bd
00000210: 197b 913d f8d9 b13c 83d6 8ebd f563 9d3d
00000220: 3390 9b3d 12e3 7d3d b477 8a3c 3725 87bd
00000230: 2e98 6cbd 24a3 9cbd 705a 0c3d b08f a33c
00000240: e016 ccbb ef7f a9bd 63d8 b13d 8820 4cbc
00000250: faf4 e1bc 52ec 233d 80c4 87bd c81a 18bc
00000260: 4a43 373d 5ab0 e8bc f1d8 0cbd bc33 a8bc
00000270: 2e1a 083d 2255 483d a4e1 84bd 1638 69bd
00000280: 2611 02bd 7796 66bd aa28 a7bd f0bc bd3b
00000290: 4007 6dbd c093 c33a 7892 01bc 148b a8bc
000002a0: 4832 a2bc 506e 48bc b547 973d c20c 29bd
000002b0: b0d0 96bc 79c3 2cbd 6896 b23c b4ce 9ebc
000002c0: c608 533d 3853 11bd 4aef 0d3d 2d15 a6bd
000002d0: 8e09 783d 92ea b2bd 30a3 82bd aa37 fcbc
000002e0: 322c 2abd d842 34bc f0ff 46bd 70e1 8cbb
000002f0: 28d2 0ebc ef79 02bd 14a7 97bc a4d7 8fbd
00000300: 2a14 1ebd 00e3 fa3c a689 773d 5832 0e3c
00000310: bea8 643d 1f47 823d 3a37 fbbc a5ff 2abd
00000320: 1e27 293d 9a4e 273d 44d3 043d ad9c 973d
00000330: e2d7 593d 42a7 4c3d dcc0 8fbd 5933 12bd
00000340: 1145 b13d 003f 603a 068a 88bd 6493 8f3c
00000350: 987e 6ebd 60d6 083c 1c1d 53bd cdd6 34bd
00000360: 8ed3 b3bd e8e7 80bd 73fa 7abd 81e6 aa3d
00000370: ceb5 353d f640 6ebd c641 8cbd 4782 0cbd
00000380: e0cf 2fbb 6230 343d 5a5d 403d 94f9 c63c
00000390: f49f 9dbd 0cf6 8fbd 50e3 b2bc 8c19 17bd
000003a0: 5d18 2abd 2d3b 35bd 77c2 9e3d 4d25 93bd
000003b0: e026 b0bc 1712 8bbd 84a0 ba3c 81de 2bbd
000003c0: 72a3 1c3d 1d9c 16bd 85b6 5bbd 1209 8abd
000003d0: 261e 8bbd 209f 903b 86df 523d bbae 853d
000003e0: 106b 87bb 8af6 793d 5d4d 06bd 00c7 793b
000003f0: 99b3 a23d 26fe 07bd 8638 2c3d af3b 35bd

fc3.bias f4 [64]
-0.0745612 -0.06321804 -0.032156896 -0.002309493 -0.085394144 0.059630368 0.35083637 0.112116374
-0.019218726 0.13063091 0.10591721 0.05527846 0.1740666 0.06179886 0.11500454 0.01660851
-0.047179814 0.15109935 0.17320462 -0.05777328 0.06839482 0.018859971 0.10829282 0.15079886
-0.043637246 0.19842687 -0.07141513 0.061328728 -0.070772216 0.20591576 0.030375341 -0.07071806
0.2694148 0.24348891 0.25066623 0.10847996 -0.054380998 0.21989532 -0.06506809 0.1594463
-0.09873146 -0.017795382 0.31049547 0.20547932 0.094048165 0.2616826 0.1794794 0.32150903
-0.09250518 -0.08784487 0.26893282 0.23641494 0.01890121 0.15528347 0.16424906 0.2607969
-0.3697656 -0.38162166 0.07312445 0.02371668 0.21633318 0.09733979 -0.020477245 0.0806235
00000000: 8bb3 98bd 7678 81bd f3b6 03bd dd5a 17bb
00000010: 20e3 aebd f93e 743d d3a0 b33e 459d e53d
00000020: 9770 9dbc 1cc4 053e 1feb d83d ab6b 623d
00000030: 843e 323e cd20 7d3d 8087 eb3d 920e 883c
00000040: 9f3f 41bd cab9 1a3e 8d5c 313e ada3 6cbd
00000050: 9512 8c3d 3a80 9a3c a0c8 dd3d 046b 1a3e
00000060: f8bc 32bd 6a30 4b3e 1842 92bd d533 7b3d
00000070: 06f1 90bd 95db 523e b5d5 f83c a1d4 90bd
00000080: bdf0 893e 2855 793e 5357 803e be2a de3d
00000090: 9cbe 5ebd 3d2c 613e 6b42 85bd e445 233e
000000a0: b833 cabd 9fc7 91bc 43f9 9e3e 2c69 523e
000000b0: 539c c03d 43fb 853e 73c9 373e d59c a43e
000000c0: 5b73 bdbd 03e8 b3bd 90b1 893e c216 723e
000000d0: b6d6 9a3c a102 1f3e e830 283e 2c87 853e
000000e0: eb51 bdbe ea63 c3be 46c2 953d 7c49 c23c
000000f0: 7286 5d3e 155a c73d e5bf a7bc ef1d a53d

fc4.weight f4 [3, 64]
0.042477123 0.07005304 -0.046366245 0.014901984 -0.07099035 0.17611648 -0.22466515 -0.11806099
0.113720745 0.25419727 -0.19463249 -0.1555111 0.28717408 0.12025501 -0.08633763 0.038405776
0.048735283 0.21714164 0.07491047 -0.04863975 -0.039377805 0.09150748 0.2453291 -0.22071885
0.18904714 0.3942086 -0.042999223 0.09283776 0.07898677 0.123215824 0.043644983 -0.004079398
-0.06019946 -0.28192526 0.37163535 -0.3214741 -0.05654224 0.1691276 -0.018075291 0.027262388
0.09718429 0.049193203 -0.28055826 -0.008254964 -0.14028619 0.13246888 -0.13005655 -0.26247314
0.051362645 0.0013228629 0.16877848 0.23626581 -0.06953727 0.0073701297 0.14888965 0.32307178
-0.12702179 0.043942854 -0.27179506 0.10583882 -0.27351812 0.15619235 0.04353383 -0.35644525
0.05217849 -0.06592983 0.105146796 0.05616501 -0.0041612023 -0.22307213 0.38720357 -0.16714579
-0.0019448106 -0.0380734 -0.107671574 -0.15536381 -0.22947651 -0.15052459 -0.0067990576 -0.03985251
0.75098133 -0.12434972 -0.06018648 -0.019494502 0.013042609 0.5761242 -0.021947958 -0.077210195
-0.2446612 0.093400866 -0.11053634 0.0467106 0.077113375 -0.18419155 0.07175596 -0.094870836
0.056186743 -0.0071634073 0.07487482 -0.15499583 0.07467637 -0.035118237 0.09715462 -0.14938405
0.068804346 -0.14567028 -0.10490075 -0.15990718 -0.19871213 -0.07411764 -0.20504127 0.09495983
0.04758577 0.093805216 -0.058862165 0.039369818 0.06390329 -0.0563351 -0.051500045 0.20342107
-0.2818251 0.3939791 -0.1984702 -0.019052045 0.3984313 -0.15433362 -0.08836909 -0.16577163
-0.066284746 0.111966714 0.07526186 0.024900354 -0.09857509 0.18804047 -0.13216352 0.104782246
-0.07834537 0.09298174 0.19333257 0.18425663 0.076650135 0.08450631 0.2544753 0.0060046506
-0.51208526 0.03992282 0.20206265 -0.11477658 -0.025072524 -0.2669033 0.23290871 0.27177158
-0.07127215 0.061876092 0.011918742 0.057291374 0.0035329629 0.20687781 -0.045180246 -0.09563934
0.26573145 0.2176769 0.16948825 0.060918935 -0.035724565 0.19802573 -0.0054012607 0.20237413
-0.09742956 -0.11759536 0.18919855 0.12868096 0.16854906 0.23756233 0.05745174 0.25037992
-0.026441792 -0.09848835 0.17362463 0.21673478 -0.064667 0.2279563 0.23361695 0.13673125
-0.2979027 -0.89967674 0.039330434 -0.059568413 -0.0892155 0.20526075 0.11405015 0.023563964
00000000: 7efc 2d3d f877 8f3d 88ea 3dbd 7327 743c
00000010: 6363 91bd e157 343e 9f0e 66be f6c9 f1bd
00000020: 6ce6 e83d 2526 823e bd4d 47be 4d3e 1fbe
00000030: 7b08 933e 4248 f63d c9d1 b0bd 604f 1d3d
00000040: a69e 473d 615a 5e3e a96a 993d 793a 47bd
00000050: 9f4a 21bd 4668 bb3d 8d37 7b3e 1f04 62be
00000060: 9395 413e b6d5 c93e f41f 30bd b921 be3d
00000070: d1c3 a13d 9458 fc3d 15c5 323d 78ac 85bb
00000080: b593 76bd 8258 90be fd46 be3e 4198 a4be
00000090: d698 67bd c92f 2d3e a212 94bc 5f55 df3c
000000a0: 8f08 c73d d07e 493d 55a5 8fbe d43f 07bc
000000b0: 2fa7 0fbe eca5 073e 8b2d 05be e162 86be
000000c0: a361 523d ea63 ad3a 44d4 2c3e aaef 713e
000000d0: 8e69 8ebd 2181 f13b 8776 183e aa69 a53e
000000e0: 0012 02be 6cfd 333d b928 8bbe 06c2 d83d
000000f0: 910a 8cbe e3f0 1f3e 8850 323d fe7f b6be
00000100: 1db9 553d 3806 87bd 3457 d73d 480d 663d
00000110: b25a 88bb 056d 64be 8c3f c63e 4428 2bbe
00000120: 04e9 feba daf2 1bbd ea82 dcbd b117 1fbe
00000130: e4fb 6abe 1e23 1abe a1ca debb 633c 23bd
00000140: 5040 403f 11ab febd 1986 76bd efb2 9fbc
00000150: abb0 553c e07c 133f 34cc b3bc 6120 9ebd
00000160: 7788 7abe f448 bf3d e060 e2bd 9d53 3f3d
00000170: 9eed 9d3d b69c 3cbe caf4 923d a44b c2bd
00000180: 1224 663d 04bb eabb f857 993d 3ab7 1ebe
00000190: edef 983d 24d8 0fbd 00f9 c63d 22f8 18be
000001a0: 4be9 8c3d 972a 15be 34d6 d6bd b5be 23be
000001b0: 317b 4bbe fdca 97bd 57f6 51be 4d7a c23d
000001c0: 4ce9 423d f31c c03d 7419 71bd 3f42 213d
000001d0: badf 823d a2bf 66bd b6f1 52bd 9d4d 503e
000001e0: 614b 90be a1b7 c93e c63b 4bbe 0913 9cbc
000001f0: 30ff cb3e a209 1ebe dafa b4bd 0ac0 29be
00000200: 4cc0 87bd ce4e e53d e422 9a3d d4fb cb3c
00000210: bde1 c9bd ae8d 403e e055 07be 1398 d63d
00000220: 8a73 a0bd 366d be3d f9f8 453e c5ad 3c3e
00000230: bffa 9c3d a511 ad3d 964a 823e a9c2 c43b
00000240: 0518 03bf 1c86 233d 83e9 4e3e fc0f ebbd
00000250: e564 cdbc 8da7 88be 9f7f 6e3e a525 8b3e
00000260: 22f7 91bd c971 7d3d d446 433c 5caa 6a3d
00000270: 4889 673b c7d7 533e ec0e 39bd 8fde c3bd
00000280: f40d 883e b1e6 5e3e 548e 2d3e 2286 793d
00000290: ec53 12bd 42c7 4a3e 0ffd b0bb 2a3b 4f3e
000002a0: 2689 c7bd d6d5 f0bd 44bd 413e f1c4 033e
000002b0: 2098 2c3e 8a43 733e 8452 6b3d cc31 803e
000002c0: 759c d8bc 43b4 c9bd a8ca 313e b9ef 5d3e
000002d0: 2270 84bd 606d 693e 4839 6f3e 4703 0c3e
000002e0: b486 98be 3751 66bf f318 213d 02fe 73bd
000002f0: 9eb6 b6bd e02f 523e 2093 e93d 3709 c13c

fc4.bias f4 [3]
-0.02986445 0.0022127654 0.22017196
00000000: 4ba6 f4bc 0b04 113b c274 613e
