examples/dnn/inverse_kinematics_model.pth (torch, 71500 bytes, 8 tensors)

fc1.weight f4 [64, 3]
-0.010487168 -0.021095783 -0.044124544 -0.025879739 -0.0050503705 -0.025442872 -0.37457672 -0.18167403
-0.39884344 0.29364628 0.17713022 0.28050977 -0.043847796 0.4563517 -0.1805735 0.4000992
0.5492445 -0.0661637 -0.091488905 -0.3343907 -0.11116855 0.5525789 -0.31456858 0.07174519
-0.12108154 0.2609259 0.5244381 0.061672427 0.090579525 -0.058001537 0.59926665 -0.42335337
0.4500467 0.3401441 0.38084307 -0.5645094 -0.59356874 0.58698684 0.4228321 -0.15952963
0.622832 0.022385871 -0.21893388 0.6411136 -0.38938743 0.5818919 0.25546685 -0.017197806
-0.21327354 0.08269934 -0.5659186 0.1293502 -0.12205662 0.35271913 0.52459466 -0.6736227
-0.10590825 -0.6161974 0.0367514 -0.15717658 -0.32421198 -0.51398784 0.34879977 -0.00062808004
-0.08955551 0.54908836 0.48345336 0.1186695 0.3491272 -0.42456067 -0.036125086 0.2178279
0.41360605 0.007981128 -0.5358598 -0.23802699 -0.3471425 -0.13489573 -0.5916923 0.49323714
-0.055863928 -0.64433366 -0.028905675 -0.0813144 0.4362822 0.47129527 0.26533175 0.52319235
0.236859 -0.34899676 -0.57288134 -0.01313223 0.20249137 0.098599344 0.5081916 -0.14539987
-0.0022971916 -0.04233188 0.3313868 0.61106956 0.14643335 -0.14121069 -0.11266895 -0.14041607
0.61704606 0.019519841 -0.024704186 -0.022386806 -0.03957331 0.064608976 -0.05735414 -0.3223017
-0.10106438 0.35327265 -0.009273482 -0.028022643 -0.024883047 0.10235668 -0.34754568 0.59361833
0.29770824 0.19460802 0.61403495 0.17573217 0.030923354 0.3469947 -0.6521148 -0.19370843
-0.4100816 -0.32369682 0.26890212 0.30858952 -0.4714572 -0.24949765 -0.33164558 0.017080963
0.0075907707 -0.20251736 -0.07076561 0.19217083 0.37568095 -0.37011936 0.22511984 0.16716214
-0.2632542 -0.032812525 -0.049961522 -0.032425743 0.43640086 -0.07343996 0.19915704 0.20027237
0.24740963 -0.6632717 0.35666505 -0.4137878 0.20504256 0.37535882 0.4415048 -0.23582417
0.09177854 -0.26635286 -0.4328263 -0.6356 0.1694776 0.58431077 0.094485536 -0.5083613
0.40977964 0.21807332 -0.5927933 -0.23785895 0.41433293 0.59827125 0.49024928 0.23985244
-0.15029234 0.57643414 -0.40173057 0.5132255 -0.51148194 -0.31146032 -0.07580873 0.27742073
0.014034039 -0.20397605 0.60732305 0.051938817 0.16932538 0.39411202 0.5356317 -0.33743238
00000000: 5fd2 2bbc 10d1 acbc f0bb 34bd bf01 d4bc
00000010: 947d a5bb 926d d0bc 85c8 bfbe c208 3abe
00000020: 3535 ccbe ce58 963e a061 353e fa9e 8f3e
00000030: bf99 33bd eea6 e93e 42e8 38be cdd9 cc3e
00000040: 4a9b 0c3f d580 87bd 895e bbbd 4235 abbe
00000050: 56ac e3bd d075 0d3f 220f a1be 24ef 923d
00000060: 99f9 f7bd 1498 853e 9341 063f 3a9c 7c3d
00000070: c281 b93d 0593 6dbd 8a69 193f c6c1 d8be
00000080: 856c e63e 5e27 ae3e ddfd c23e b083 10bf
00000090: 1ff4 17bf c544 163f 737d d83e bc5b 23be
000000a0: eb71 1f3f 9362 b73c 3430 60be 0520 243f
000000b0: ca5d c7be def6 143f 8dcc 823e 6ae2 8cbc
000000c0: 6164 5abe 465e a93d 0be0 10bf 6174 043e
000000d0: d2f8 f9bd 9a97 b43e d64b 063f 8a72 2cbf
000000e0: 6de6 d8bd 1dbf 1dbf a388 163d e6f2 20be
000000f0: 1dff a5be b594 03bf e295 b23e bda5 24ba
00000100: e168 b7bd 0e91 0c3f 3387 f73e ff08 f33d
00000110: cdc0 b23e 0460 d9be e6f7 13bd 470e 5f3e
00000120: 2cc4 d33e 47c3 023c 1c2e 09bf 59bd 73be
00000130: a9bc b1be 1b22 0abe 2679 17bf 9489 fc3e
00000140: 93d1 64bd 0df3 24bf 98cb ecbc 2a88 a6bd
00000150: 6160 df3e 9d4d f13e 90d9 873e efef 053f
00000160: 2a8b 723e b4af b2be 5aa8 12bf 9128 57bc
00000170: e659 4f3e 74ee c93d d818 023f b4e3 14be
00000180: 7b8c 16bb 3264 2dbd 88ab a93e 0e6f 1c3f
00000190: a0f2 153e 8999 10be fabe e6bd 3bc9 0fbe
000001a0: bbf6 1d3f 13e8 9f3c 6f60 cabc 8964 b7bc
000001b0: a017 22bd b651 843d 2dec 6abd ba04 a5be
000001c0: d7fa cebd 27e0 b43e cdef 17bc be8f e5bc
000001d0: 88d7 cbbc 61a0 d13d 82f1 b1be 5ff7 173f
000001e0: 376d 983e 5347 473e 6531 1d3f 22f3 333e
000001f0: f952 fd3c 4aa9 b13e fff0 26bf 815b 46be
00000200: 37f6 d1be 97bb a5be 8aad 893e 72ff 9d3e
00000210: d762 f1be 507c 7fbe 73cd a9be 60ed 8b3c
00000220: 00bc f83b b660 4fbe 8fed 90bd 6ec8 443e
00000230: 4159 c03e 4980 bdbe d185 663e 8d2c 2b3e
00000240: 41c9 86be 6d66 06bd 74a4 4cbd dbd0 04bd
00000250: ef6f df3e b167 96bd d3ef 4b3e 3314 4d3e
00000260: f358 7d3e 2dcc 29bf cd9c b63e ffdb d3be
00000270: adf6 513e 082f c03e eb0c e23e e47b 71be
00000280: 63f6 bb3d 675f 88be 699b ddbe aeb6 22bf
00000290: 898b 2d3e 6495 153f a281 c13d f723 02bf
000002a0: a3ce d13e 9d4e 5f3e 4dc1 17bf 4c91 73be
000002b0: 7223 d43e 4e28 193f f401 fb3e e19b 753e
000002c0: 3ce6 19be 3091 133f a1af cdbe bf62 033f
000002d0: 7bf0 02bf ba77 9fbe 9c41 9bbd 170a 8e3e
000002e0: 07ef 653c 19df 50be 8679 1b3f ccbd 543d
000002f0: a263 2d3e 0dc9 c93e 291f 093f f0c3 acbe

fc1.bias f4 [64]
1.0262778 0.8740088 0.54695743 -0.13603528 0.9551351 0.3467035 0.23086318 -0.32845256
0.8623606 0.9174865 0.3258781 0.381891 0.26974863 -0.5341983 0.5175205 -0.24834648
0.36429396 0.25597295 0.307908 -0.29746625 0.28262982 0.9342791 0.601415 -0.69746506
0.06806528 0.44261196 0.3642938 -0.15436909 -0.14271672 0.37764147 -0.31871644 -0.48058426
0.5552279 -0.16930935 0.11190844 0.6937114 1.0399047 0.5655234 0.6307847 -0.18216418
0.0019552673 0.25484675 -0.5162017 0.016219638 0.534314 -0.46980274 -0.4846492 -0.1909337
0.4892386 0.7867525 -0.07184236 0.09716396 -0.2028401 0.6386353 0.35962716 0.47515288
-0.41878358 0.787554 0.25959787 -0.3347616 -0.17231317 1.0768902 0.5026213 0.557065
00000000: 125d 833f 0abf 5f3f 6705 0c3f d54c 0bbe
00000010: bc83 743f 1f83 b13e 6667 6c3e ef2a a8be
00000020: aac3 5c3f 65e0 6a3f 7fd9 a63e 3887 c33e
00000030: 7e1c 8a3e 38c1 08bf 397c 043f 8a4e 7ebe
00000040: bd84 ba3e e30e 833e 1ea6 9d3e 7f4d 98be
00000050: dbb4 903e ea2c 6f3f 55f6 193f 128d 32bf
00000060: cf65 8b3d 099e e23e b884 ba3e ee12 1ebe
00000070: 5524 12be 395a c13e cd2e a3be 240f f6be
00000080: 6a23 0e3f 6e5f 2dbe 4130 e53d 1297 313f
00000090: 991b 853f 24c6 103f 1b7b 213f 3f89 3abe
000000a0: f123 003b 467b 823e cb25 04bf 0cdf 843c
000000b0: cdc8 083f fc89 f0be f123 f8be 2084 43be
000000c0: 7b7d fa3e 9d68 493f 1622 93bd e6fd c63d
000000d0: 51b5 4fbe 9a7d 233f 0d21 b83e 3d47 f33e
000000e0: cd6a d6be 249d 493f 03ea 843e df65 abbe
000000f0: dd72 30be 8ad7 893f caab 003f d09b 0e3f

fc2.weight f4 [128, 64]
0.46905452 0.3786848 -0.08179446 0.021451747 0.055359982 0.11312262 -0.0034118958 -0.07976883
0.15248218 0.2695447 0.09202476 0.17308958 -0.0242683 0.0007376576 -0.022525297 -0.0081225075
-0.43111265 0.11452926 0.11649008 0.016432108 -0.17578268 -0.019168641 0.18184468 -0.13105519
0.07114748 -0.38568136 0.0034418397 -0.09069121 0.06349306 0.1049902 0.048196234 0.08701867
-0.09543401 0.115329966 -0.10646124 0.16873188 0.23164533 -0.1115205 0.25403988 -0.18221974
-0.09749214 0.08474938 -0.18213268 -0.11268764 -0.01697999 -0.0015669167 0.0097117 -0.0025070324
-0.115963645 0.1431901 -0.098187216 0.06906451 0.08144538 -0.27032545 -0.59506005 0.13736922
-0.09325263 -0.019159006 -0.016124738 -0.018074468 -0.08539783 0.33308327 0.05313093 0.03995665
0.22240129 0.07204811 -0.16255376 0.14579806 0.037606865 0.18575653 -0.00061613973 0.052392945
-0.015410926 0.07631701 -0.015407897 0.044907726 0.111285806 0.06523749 0.15972404 -0.031079557
-0.34247 0.07787235 0.3886154 -0.023735415 -0.06673288 -0.017084206 0.09534462 0.030980542
0.1069025 -0.28697035 -0.041487616 -0.013973072 0.18960993 0.07147938 -0.09205063 0.17980358
0.0032234516 0.090704665 0.09494207 0.0014021127 -0.053517587 0.030125001 0.10377998 -0.07893237
0.11128112 0.04097268 0.034487806 0.105909474 -0.17395309 -0.08879541 0.15896645 -0.04166587
-0.02822286 0.0015644628 0.16804397 -0.048685335 0.14842477 -0.062408052 0.25605702 0.10325894
0.003418804 0.16816486 0.16775587 -0.017339943 0.111910485 0.28583515 0.021297267 0.17663285
0.027778145 0.025972486 -0.01628752 -0.04083695 -0.0232912 -0.0153466165 -0.11954255 0.0022032335
-0.008473662 -0.00047728774 0.059214324 -0.1325528 -0.103728674 0.0690864 0.10656299 0.06510004
0.09137651 -0.13297093 0.07861709 0.0715473 -0.059164252 -0.06813482 -0.021740485 -0.027505383
-0.1088285 -0.10550563 -0.071035266 0.06149751 -0.06879615 -0.13425294 -0.06129904 -0.100689
-0.08323207 0.07917211 0.07112786 -0.104624815 0.02920121 -0.037700113 0.08150693 0.02772532
-0.06140486 0.03121787 -0.101032466 0.056827944 0.039113447 0.109446704 0.08650333 0.019992366
-0.04235241 -0.13342112 -0.0034461308 0.02291894 0.07219354 -0.080671236 -0.073714346 0.09328181
-0.021034269 -0.078109 0.027390195 -0.11892297 0.046178922 -0.04951264 0.06036548 -0.123755686
0.073225 0.10071931 -0.03276008 -0.06429568 -0.048036367 -0.044514984 0.025795521 -0.0846031
-0.13059115 0.008618631 0.017495602 0.09791961 -0.066438764 0.023974217 -0.04462625 -0.015620276
0.03655402 0.028615609 -0.11605865 -0.03988389 -0.11204767 -0.10655668 -0.10247181 -0.007642931
-0.06997824 0.0667148 0.08833411 0.07659434 -0.049525723 -0.06936073 0.10699777 0.11958434
-0.018659106 0.06796932 -0.012475425 0.03276339 0.104789406 0.0002620288 -0.113957465 0.0951213
-0.018165067 -0.012240231 -0.020832794 -0.033283327 0.027460644 -0.08061859 0.043451115 0.045989104
-0.01374781 -0.1386978 -0.11143352 -0.12980004 -0.095561296 -0.02469193 0.08077818 -0.1043597
0.026779965 -0.112596296 0.044989392 -0.06317319 0.025183324 0.10731161 0.018745959 0.07774444
00000000: ea27 f03e f9e2 c13e db83 a7bd 93bb af3c
00000010: 26c1 623d d5ac e73d 1d9a 5fbb d75d a3bd
00000020: 4a24 1c3e c301 8a3e 7a77 bc3d 653e 313e
00000030: 50ce c6bc 5d5f 413a f986 b8bc 4414 05bc
00000040: ccba dcbe 518e ea3d 5a92 ee3d a19c 863c
00000050: 6000 34be 8e07 9dbc 7e35 3a3e 5533 06be
00000060: c5b5 913d 0778 c5be 7d90 613b 50bc b9bd
00000070: a608 823d 1a05 d73d 6a69 453d d836 b23d
00000080: e872 c3bd 1e32 ec3d 5a08 dabd 0dc8 2c3e
00000090: 6f34 6d3e dc64 e4bd 8411 823e d097 3abe
000000a0: f6a9 c7bd 1591 ad3d fd80 3abe c7c8 e6bd
000000b0: 9f19 8bbc 0061 cdba d21d 1f3c 064d 24bb
000000c0: 597e edbd 6da0 123e 6116 c9bd b271 8d3d
000000d0: d6cc a63d 1968 8abe db55 18bf 84aa 0c3e
000000e0: 3cfb bebd 59f3 9cbc 0718 84bc e810 94bc
000000f0: 0fe5 aebd e489 aa3e d19f 593d 96a9 233d
00000100: 2abd 633e f68d 933d 7e74 26be 164c 153e
00000110: a809 1a3d f636 3e3e 7084 21ba fc99 563d
00000120: 1c7e 7cbc 184c 9c3d 6771 7cbc 2af1 373d
00000130: d0e9 e33d 3c9b 853d b38e 233e 8e9a febc
00000140: 3a58 afbe 8a7b 9f3d 99f8 c63e c670 c2bc
00000150: 40ab 88bd 2df4 8bbc 0a44 c33d e8ca fd3c
00000160: b3ef da3d c7ed 92be ebee 29bd 50ef 64bc
00000170: 1b29 423e c863 923d 0a85 bcbd 6e1e 383e
00000180: 8b40 533b 5ec3 b93d fd70 c23d 18c7 b73a
00000190: 4235 5bbd b5c8 f63c 998a d43d 4ba7 a1bd
000001a0: 5be7 e33d f8d2 273d 1643 0d3d 11e7 d83d
000001b0: c220 32be 5eda b5bd 1ac8 223e d5a9 2abd
000001c0: a133 e7bc a90e cd3a b813 2c3e 466a 47bd
000001d0: aafc 173e 969f 7fbd e819 833e 6c79 d33d
000001e0: 030e 603b 6933 2c3e 32c8 2b3e 7f0c 8ebc
000001f0: 5331 e53d fc58 923e 9b77 ae3c 3edf 343e
00000200: fe8e e33c 40c4 d43c 686d 85bc a544 27bd
00000210: 30cd bebc 6070 7bbc b9d2 f4bd 2064 103b
00000220: 1dd5 0abc 7a3c fab9 b88a 723d ecbb 07be
00000230: b36f d4bd 2c7d 8d3d b23d da3d 2b53 853d
00000240: 9c23 bb3d 8829 08be ff01 a13d 6487 923d
00000250: 3756 72bd 458a 8bbd 1a19 b2bc f852 e1bc
00000260: 7ae1 debd 5613 d8bd f07a 91bd d0e4 7b3d
00000270: ffe4 8cbd 9a79 09be b414 7bbd 0936 cebd
00000280: 9375 aabd fd24 a23d 7cab 913d 8945 d6bd
00000290: 6037 ef3c 6f6b 1abd 1bed a63d 3620 e33c
000002a0: aa83 7bbd 9ebc ff3c 1cea cebd 6bc4 683d
000002b0: 6c35 203d 9825 e03d a828 b13d 08c7 a33c
000002c0: b879 2dbd 8c9f 08be 7bd8 61bb 80c0 bb3c
000002d0: 35da 933d f636 a5bd 8cf7 96bd 890a bf3d
000002e0: 0f50 acbc 9df7 9fbd 6761 e03c e38d f3bd
000002f0: 1c26 3d3d c4cd 4abd cb41 773d 9f73 fdbd
00000300: fdf6 953d ed45 ce3d 6f2f 06bd 74ad 83bd
00000310: c8c1 44bd 5855 36bd 2151 d33c 6444 adbd
00000320: b0b9 05be 2935 0d3c f052 8f3c 148a c83d
00000330: 0c11 88bd 9465 c43c 04ca 36bd 30ec 7fbc
00000340: abb9 153d 486b ea3c 28b0 edbd 4a5d 23bd
00000350: 4079 e5bd 633a dabd bedc d1bd 8d71 fabb
00000360: c050 8fbd c5a1 883d 84e8 b43d 7edd 9c3d
00000370: 7cdb 4abd 000d 8ebd a621 db3d a2e8 f43d
00000380: fbda 98bc 8033 8b3d ba65 4cbc e832 063d
00000390: d49b d63d e960 8939 8862 e9bd f5ce c23d
000003a0: e8ce 94bc 408b 48bc 89a9 aabc 1954 08bd
000003b0: 25f5 e03c 5c1b a5bd ccf9 313d 125f 3c3d
000003c0: 7f3e 61bc cc06 0ebe 4237 e4bd 4dea 04be
000003d0: a4b5 c3bd bb46 cabc 086f a53d 8aba d5bd
000003e0: a861 db3c e398 e6bd cc46 383d f260 81bd
000003f0: 424d ce3c 30c6 db3d 2091 993c 7a38 9f3d

fc2.bias f4 [128]
0.19640452 0.081857964 -0.13010985 0.08586272 0.1887353 0.21759982 0.12123304 0.13860193
0.20443669 -0.10094636 0.38478932 0.3539259 0.22736292 0.16784735 0.1905661 0.04691375
-0.104465485 0.41847157 0.05713401 0.42656234 0.16927351 0.087564 0.29622394 0.2743536
0.045108914 0.24164806 0.1206187 0.073371105 0.17874599 0.14810252 -0.057146475 0.1105367
-0.08939893 0.3069376 0.2938497 0.34136426 0.12849946 0.26257977 -0.11958178 0.015029861
0.07963172 0.04372261 -0.083127536 0.15845343 0.3098371 0.14710452 0.28328916 -0.009611249
0.3166028 0.46644285 0.11668035 -0.020476718 0.2703444 0.2076754 0.0724891 0.2053537
0.26724657 0.39505762 -0.16230145 0.13485958 0.15610217 0.12910675 0.32906348 0.20922661
0.20923181 0.37115556 0.18725759 0.15203764 0.09193896 0.28505972 0.1717418 0.3088055
0.15563019 0.16057615 -0.083006635 0.12821703 -0.38418898 0.043398112 0.36282068 0.15583044
0.21800736 0.23564288 -0.12708029 0.27987286 0.35586244 0.4184906 0.10007455 0.21887733
0.094834186 0.3632377 0.21425435 0.116460584 0.27147964 0.38321626 0.08265267 0.3794023
-0.043813217 0.2581561 0.015641855 0.2473989 0.25279528 0.05131985 0.27665183 0.20118521
0.13286078 0.4016181 0.20836334 0.25615236 0.19567838 0.23622525 0.28178513 0.2567169
0.44698063 0.25238156 0.40044343 -0.23719333 0.2761923 0.19172569 0.11481223 0.35510316
0.10141128 0.25857177 0.03997183 0.118556276 -0.030829467 -0.13182616 0.024844538 0.4180409
00000000: 441e 493e 26a5 a73d 843b 05be cbd8 af3d
00000010: d443 413e 7dd2 5e3e 0749 f83d aaed 0d3e
00000020: da57 513e f7bc cebd 1b03 c53e c735 b53e
00000030: d3d1 683e 2de0 2b3e c223 433e a228 403d
00000040: 00f2 d5bd e841 d63e 5a05 6a3d 6166 da3e
00000050: 0956 2d3e c154 b33d aaaa 973e 1378 8c3e
00000060: 20c4 383d 9772 773e f006 f73d 9743 963d
00000070: 3009 373e 30a8 173e 6c12 6abd 1161 e23d
00000080: c916 b7bd ed26 9d3e 7873 963e 4cc7 ae3e
00000090: 5d95 033e db70 863e 4be7 f4bd ce3f 763c
000000a0: f515 a33d 7b16 333d c53e aabd 9e41 223e
000000b0: f8a2 9e3e 91a2 163e 470b 913e 8078 1dbc
000000c0: c319 a23e 99d1 ee3e 1bf6 ee3d cabe a7bc
000000d0: 956a 8a3e dca8 543e 2a75 943d 3e48 523e
000000e0: 8bd4 883e fe44 ca3e 5a32 26be a118 0a3e
000000f0: 3fd9 1f3e 8f34 043e 027b a83e 803f 563e
00000100: dd40 563e 1a08 be3e 74c0 3f3e c1af 1b3e
00000110: 7e4a bc3d 59f3 913e 15dd 2f3e c11b 9e3e
00000120: 855d 1f3e 136e 243e 62ff a9bd 534b 033e
00000130: 6bb4 c4be 38c2 313d a2c3 b93e 0492 1f3e
00000140: 523d 5f3e 5e4c 713e 5621 02be 7f4b 8f3e
00000150: 9a33 b63e 6644 d63e e3f3 cc3d 6121 603e
00000160: 6d38 c23d 4bfa b93e 7e65 5b3e e382 ee3d
00000170: 61ff 8a3e ec34 c43e ce45 a93d 0541 c23e
00000180: 7d75 33bd 092d 843e 5923 803c 2356 7d3e
00000190: 626e 813e c334 523d 4fa5 8d3e 7f03 4e3e
000001a0: a80c 083e e3a0 cd3e 335d 553e 6726 833e
000001b0: ea5f 483e 08e5 713e 2446 903e 6670 833e
000001c0: a5da e43e 2838 813e ec06 cd3e cfe2 72be
000001d0: 1469 8d3e bd53 443e ad22 eb3d 15d0 b53e
000001e0: b8b0 cf3d 8563 843e 80b9 233d a2cd f23d
000001f0: 148e fcbc 70fd 06be c686 cb3c 7509 d63e

fc3.weight f4 [64, 128]
0.09935341 0.033864155 -0.018918201 0.045699634 0.06440256 0.08022524 0.21303926 0.12881216
-0.0431663 -0.014896791 0.16878667 0.14101121 0.080244124 -0.017645912 0.04512592 4.1102976e-05
-0.07345418 0.13672166 0.005011621 0.13847992 0.0514219 0.06458911 0.07848904 0.09293308
0.0981486 0.04183084 0.089267 0.05930671 -0.019693818 0.06859987 0.0025702773 0.09262963
0.09319341 0.14448436 0.12456867 0.16393645 0.078002796 0.005296997 -0.062108137 0.0049191713
0.059007127 0.12816195 -0.058006298 0.13988103 0.15646374 0.07848864 0.04685486 -0.077141695
0.050876297 0.20369598 0.013826032 -0.14474276 0.091472805 0.056543022 0.10434525 0.089747906
0.12910575 0.013791741 -0.09673549 0.08667831 0.08171357 0.11679212 0.08998832 0.0005434063
-0.005332269 0.0939791 0.1391607 -0.024827449 0.053387392 0.03733385 0.11553234 0.14881088
0.069369294 0.11194448 -0.031227916 -0.0017408319 -0.3332394 0.031354554 0.0817799 0.011335757
0.15866895 0.11406049 -0.13296494 -0.010727567 0.037944876 0.10189035 -0.026977444 0.14665566
0.045520384 0.10773624 0.1278503 0.077004775 0.13794032 0.03737223 0.049536295 0.05729409
0.067809634 0.1121934 0.0061181393 0.030984025 0.099640064 0.06825954 0.0055653434 -0.021946419
-0.015218934 0.061181292 0.13488358 0.14687486 0.13962305 0.08352216 0.08216444 0.02219461
0.22362933 0.09498265 0.05793059 -0.46596622 0.26623663 0.07479652 0.13366418 0.16555254
0.094113216 0.054214742 0.05311864 0.079163216 -0.03685445 0.054113448 -0.17350703 0.10544641
0.05598375 0.022601048 -0.032139905 -0.0037644415 -0.082458906 -0.09627951 0.015743466 0.055776216
-0.006844959 0.1080784 0.14342417 -0.08359366 0.029165605 0.067349814 0.049038265 -0.030788932
-0.015594457 -0.13628317 0.03814162 -0.09646704 0.028440459 -0.057067316 -0.007521276 -0.049434714
-0.014467088 0.0346793 -0.042241435 -0.09933732 -0.04139223 -0.026323328 -0.06352477 0.07189963
0.03086412 -0.10546099 -0.040599197 -0.021470856 0.008304824 -0.031627573 -0.00010139429 -2.9107061e-05
-0.07280153 0.007891616 -0.08167145 -0.04830484 -0.09193318 0.03861827 -0.010696808 -0.045406118
-0.022671403 -0.09710127 0.03199303 -0.10531786 -0.019988634 -0.048503026 -0.066318825 0.054551113
0.11414548 -0.0308906 0.035279647 0.059203833 -0.038651768 -0.0056222924 0.01939458 -0.052336562
-0.08104812 -0.09855956 -0.097620055 -0.057215538 0.12965354 -0.2241707 0.0032178536 -0.15628256
-0.028281422 -0.086890854 -0.013902105 0.038842432 0.1091327 -0.079481736 -0.012903721 0.05864406
-0.21749778 0.036263812 0.10696035 0.034467608 0.039939653 -0.09211257 0.043717723 -0.03768087
0.02274889 0.07138208 0.0461325 -0.055811714 -0.266561 -0.0044102543 0.008075707 -0.036697354
-0.017470615 0.04522259 -0.07615544 0.064565614 -0.13806996 -0.037555482 0.049176097 -0.034137852
-0.03556598 -0.13299514 0.040813237 -0.07939239 -0.022753533 -0.0013959057 -0.037322693 0.115827724
-0.047538895 -0.02809962 -0.055771425 0.23172025 0.03905293 -0.009929305 0.049517553 0.0037055376
0.013941457 -0.061780088 -0.05899998 -0.023437062 -0.021933861 -0.027042586 -0.00795904 -0.017154653
00000000: cd79 cb3d 24b5 0a3d 58fa 9abc 8a2f 3b3d
00000010: 7de5 833d 214d a43d f726 5a3e 56e7 033e
00000020: 25cf 30bd ac11 74bc 6ad6 2c3e 3e65 103e
00000030: 0857 a43d 298e 90bc f5d5 383d fc65 2c38
00000040: 256f 96bd c300 0c3e 8638 a43b aecd 0d3e
00000050: c59f 523d 4c47 843d ddbe a03d b353 be3d
00000060: 2202 c93d d156 2b3d 9ed1 b63d 98eb 723d
00000070: ee54 a1bc 177e 8c3d 1972 283b 9ab4 bd3d
00000080: 30dc be3d b5f3 133e dc1d ff3d f5de 273e
00000090: eebf 9f3d 6e92 ad3b 1a65 7ebd 0031 a13b
000000a0: 75b1 713d e33c 033e 0398 6dbd f93c 0f3e
000000b0: 0838 203e a7be a03d e2ea 3f3d 77fc 9dbd
000000c0: aa63 503d ae95 503e 9586 623c 7237 14be
000000d0: 1856 bb3d a899 673d f6b2 d53d c0cd b73d
000000e0: 4c34 043e c1f6 613c 421d c6bd 6684 b13d
000000f0: 7259 a73d b530 ef3d cc4b b83d 6173 0e3a
00000100: 50ba aebb 1d78 c03d 2480 0e3e ef62 cbbc
00000110: bdac 5a3d 61eb 183d 389c ec3d e161 183e
00000120: 7d11 8e3d 2643 e53d b0d1 ffbc a02c e4ba
00000130: 5b9e aabe a26d 003d 387c a73d 9cb9 393c
00000140: 1d7a 223e 8c98 e93d f627 08be adc2 2fbc
00000150: 166c 1b3d e3ab d03d cdff dcbc e72c 163e
00000160: 9573 3a3d d1a4 dc3d 30eb 023e aeb4 9d3d
00000170: 3a40 0d3e a013 193d 92e6 4a3d 35ad 6a3d
00000180: c7df 8a3d a7c5 e53d ac7a c83b 36d2 fd3c
00000190: 1710 cc3d a8cb 8b3d 7c5d b63b fac8 b3bc
000001a0: d658 79bc 3c99 7a3d ec1e 0a3e 5d66 163e
000001b0: 58f9 0e3e ab0d ab3d d445 a83d 79d1 b53c
000001c0: 16ff 643e 4386 c23d a048 6d3d 2093 eebe
000001d0: 2b50 883e eb2e 993d 43df 083e 9b86 293e
000001e0: 6ebe c03d 4710 5e3d ee92 593d 5320 a23d
000001f0: b1f4 16bd 10a6 5d3d d4ab 31be 4af4 d73d
00000200: 374f 653d d525 b93c 22a5 03bd d9b4 76bb
00000210: 37e0 a8bd 312e c5bd 71f8 803c 9a75 643d
00000220: ae4b e0bb 3558 dd3d c9dd 123e 2733 abbd
00000230: b5ec ee3c b3ee 893d 59dc 483d 1239 fcbc
00000240: e57f 7fbc d18d 0bbe 633a 1c3d 8390 c5bd
00000250: f7fb e83c 6bbf 69bd 0975 f6bb 0e7c 4abd
00000260: 5d07 6dbc e20b 0e3d 5b05 2dbd 5d71 cbbd
00000270: e68a 29bd 05a4 d7bc 4619 82bd 1d40 933d
00000280: c0d6 fc3c eefb d7bd 584b 26bd a6e3 afbc
00000290: f510 083c ea8b 01bd a5a3 d4b8 f02a f4b7
000002a0: f818 95bd d64b 013c 5c43 a7bd 4cdb 45bd
000002b0: 7747 bcbd 312e 1e3d aa41 2fbc c4fb 39bd
000002c0: 61b9 b9bc 08dd c6bd 200b 033d e4b0 d7bd
000002d0: 34bf a3bc 1cab 46bd 2ad2 87bd fd70 5f3d
000002e0: 1bc5 e93d 490e fdbc 6481 103d b87f 723d
000002f0: 5151 1ebd 353b b8bb 62e1 9e3c dd5e 56bd
00000300: 8ffc a5bd 98d9 c9bd 06ed c7bd d75a 6abd
00000310: e6c3 043e 018d 65be a0e2 523b 8908 20be
00000320: 71ae e7bc d5f3 b1bd a8c5 63bc 3e19 1f3d
00000330: f780 df3d 52c7 a2bd 216a 53bc c134 703d
00000340: bdb7 5ebe 5d89 143d 070e db3d e82d 0d3d
00000350: c397 233d 84a5 bcbd 5b11 333d 4257 1abd
00000360: e15b ba3c c530 923d 6ff5 3c3d d39a 64bd
00000370: af7a 88be e583 90bb f84f 043c f74f 16bd
00000380: 891e 8fbc 533b 393d 62f7 9bbd fa3a 843d
00000390: 3662 0dbe c7d3 19bd e06c 493d 22d4 0bbd
000003a0: a2ad 11bd e12f 08be c82b 273d 7a98 a2bd
000003b0: 9e65 babc d3f6 b6ba aedf 18bd 1637 ed3d
000003c0: 25b8 42bd 2d31 e6bc 9470 64bd 1348 6d3e
000003d0: f7f5 1f3d 86ae 22bc ebd2 4a3d 9bd8 723b
000003e0: b56a 643c 1e0d 7dbd f7a9 71bd 15ff bfbc
000003f0: a4ae b3bc 6a88 ddbc a266 02bc ea87 8cbc

fc3.bias f4 [64]
0.07985571 0.040544905 -0.057485655 0.119119026 0.10598062 0.17012109 0.06968208 0.2005718
0.13407671 0.115829825 0.19379747 0.07826522 -0.11719246 0.10529912 0.15729293 0.13456288
0.16963784 0.22206892 0.035993654 -0.008672022 0.10888827 0.14009131 -0.0033007755 0.10465807
0.10002402 0.06945844 0.07266231 0.14775144 0.18514262 0.056736633 -0.021436485 0.075622246
-0.08496791 -0.11170838 0.22249542 0.045544382 -0.015227871 0.056633256 0.053732175 0.31080192
-0.008809888 0.09514519 0.14843841 -0.027407939 0.2295088 -0.09585765 0.062467054 0.3664434
0.22498228 0.16181836 -0.03851636 -0.069198854 0.1961373 0.26541942 0.09173096 0.18352973
0.07415206 0.03601534 0.011827989 -0.083013915 0.11172934 0.044714674 -0.06215687 -0.44823056
00000000: 648b a33d 6a12 263d 1476 6bbd adf4 f33d
00000010: 5e0c d93d 3934 2e3e 7ab5 8e3d b262 4d3e
00000020: 684b 093e 3038 ed3d d872 463e 8449 a03d
00000030: 9a02 f0bd 11a7 d73d 6611 213e daca 093e
00000040: 8bb5 2d3e 0966 633e 156e 133d 1915 0ebc
00000050: d000 df3d 1974 0f3e d351 58bb f856 d63d
00000060: 65d9 cc3d 3a40 8e3d facf 943d 274c 173e
00000070: 0796 3d3e ac64 683d 919b afbc d6df 9a3d
00000080: a803 aebd 5dc7 e4bd d7d5 633e bf8c 3a3d
00000090: 527e 79bc 46f8 673d 4516 5c3d 6e21 9f3e
000000a0: 5957 10bc 7bdb c23d 3d00 183e 9d86 e0bc
000000b0: 5b04 6b3e 0451 c4bd 74dd 7f3d 789e bb3e
000000c0: c161 663e b6b3 253e 55c3 1dbd 21b8 8dbd
000000d0: 37d8 483e 0ee5 873e 71dd bb3d 38ef 3b3e
000000e0: 09dd 973d d284 133d 2eca 413c 3303 aabd
000000f0: 5ad2 e43d bc26 373d 3498 7ebd 7a7e e5be

fc4.weight f4 [3, 64]
0.014811021 -0.22513889 0.065190695 0.14193706 0.07585878 -0.18654755 -0.1110583 0.2731806
0.13877065 -0.17833254 0.21547557 -0.08834567 -0.22349678 -0.18980463 0.21016277 -0.24948579
-0.11708055 0.09383492 -0.09000094 -0.06352757 -0.28232193 0.07830599 0.05465729 0.23747946
-0.20895201 0.09456835 -0.10313519 -0.25034416 0.029984858 -0.12657921 -0.033750195 0.101963244
0.106340215 0.38043308 0.2233229 -0.09400454 0.054533996 -0.030401917 0.14719087 -0.13250165
-0.009639001 0.2734917 -0.29259065 0.18083669 -0.23825331 -0.067578666 0.112214394 0.099495865
0.06679658 -0.22960518 -0.010645195 0.026279593 0.21951467 -0.018006148 0.27925712 0.046515472
0.06581279 -0.74330485 -0.031381115 0.02626629 0.17746052 0.103025034 0.072979115 -0.21004847
-0.068728395 0.005093408 0.07692635 -0.19002138 -0.1324817 0.03802785 0.098595284 -0.08771119
-0.15847568 -0.054042965 0.0075705764 0.009012421 -0.14752328 -0.113937005 0.037680995 -0.1991024
-0.19000934 0.0329696 0.03304178 0.057636365 0.03557234 -0.17736764 -0.029149065 -0.1750601
-0.24718162 -0.030793326 -0.00046377815 -0.09336482 -0.05527283 -0.15354432 -0.11681497 -0.09163288
-0.033588693 0.80463237 0.06611213 0.06942777 -0.1277448 0.024366865 -0.15024683 0.05703298
0.085103914 0.068513274 0.089889124 -0.22674964 0.06823988 -0.13244334 -0.05636457 0.27124247
-0.04665659 -0.10530888 0.029129907 0.027644332 0.08415385 0.30160236 -0.12588431 -0.16100875
0.08861037 -0.017482694 -0.1165833 -0.03730377 0.055143543 -0.08886019 -0.01226087 0.657511
0.1493327 -0.12967527 -0.032484993 0.15419982 0.1730365 0.20960404 -0.071877435 0.1689018
0.054071173 0.19138551 0.14496322 0.009662497 -0.103196725 0.031823844 0.11817277 0.11094091
0.142125 0.21230167 0.010480651 0.07542555 0.16539057 0.13978738 -0.03028785 0.00026683952
-0.038562045 -0.0846983 -0.024155136 0.10344727 0.1973738 0.13643903 -0.09041128 0.14979193
0.08853383 -0.6474821 0.19885813 -0.015155276 -0.06321478 -0.011373684 0.06700325 0.16083832
-0.11170333 0.19543539 0.09293339 -0.03999797 0.14052741 -0.06692224 0.20643003 0.40130383
0.18172191 0.09399428 -0.11215755 -0.1055763 0.2095175 0.41165164 0.14690435 0.15244141
-0.07026275 0.2585998 -0.073410474 -0.09931688 0.19667 0.01433812 -0.0698701 -0.505458
00000000: eda9 723c cf8a 66be b382 853d f357 113e
00000010: d95b 9b3d 5206 3fbe 8972 e3bd 54de 8b3e
00000020: e519 0e3e ce9c 36be a1a5 5c3e 93ee b4bd
00000030: 57dc 64be 255c 42be e934 573e 3479 7fbe
00000040: edc7 efbd 862c c03d 6a52 b8bd be1a 82bd
00000050: 808c 90be e45e a03d 53e0 5f3d d12d 733e
00000060: 84f7 55be 0dad c13d 8b38 d3bd 1c2d 80be
00000070: cea2 f53c fb9d 01be a53d 0abd 1bd2 d03d
00000080: e6c8 d93d 20c8 c23e c2ae 643e 7485 c0bd
00000090: 0a5f 5f3d 710d f9bc 34b9 163e 83ae 07be
000000a0: e7ec 1dbc 1b07 8c3e 71ce 95be 412d 393e
000000b0: adf8 73be af66 8abd a9d0 e53d 7dc4 cb3d
000000c0: a5cc 883d 9f1d 6bbe 2f69 2ebc 4d48 d73c
000000d0: 74c8 603e a181 93bc cafa 8e3e 0287 3e3d
000000e0: dbc8 863d 3a49 3ebf 7c89 00bd 672c d73c
000000f0: 36b8 353e cafe d23d 1376 953d f216 57be
00000100: 79c1 8cbd 9ae6 a63b 908b 9d3d f794 42be
00000110: 48a9 07be 17c3 1b3d 53ec c93d eda1 b3bd
00000120: 7347 22be 285c 5dbd 9912 f83b d5a8 133c
00000130: 5810 17be ce57 e9bd 6357 1a3d 80e1 4bbe
00000140: cf91 42be 220b 073d d156 073d 1c14 6c3d
00000150: 4db4 113d dd9f 35be 05ca eebc f442 33be
00000160: 2e1d 7dbe 4942 fcbc 4027 f3b9 0e36 bfbd
00000170: c365 62bd b93a 1dbe b03c efbd 05aa bbbd
00000180: 4c94 09bd 63fc 4d3f cc65 873d 2630 8e3d
00000190: 88cf 02be 059d c73c 4eda 19be 6a9b 693d
000001a0: f64a ae3d b050 8c3d ca17 b83d 0f31 68be
000001b0: 5ac1 8b3d 3a9f 07be 89de 66bd 4be0 8a3e
000001c0: fb1a 3fbd 2fac d7bd d8a1 ee3c 5e76 e23c
000001d0: db58 ac3d a06b 9a3e d1e7 00be 7adf 24be
000001e0: 5b79 b53d de37 8fbc 3ac3 eebd d7cb 18bd
000001f0: 32de 613d 55fc b5bd d1e1 48bc a452 283f
00000200: acea 183e 98c9 04be fc0e 05bd 8fe6 1d3e
00000210: 7b30 313e 71a2 563e 7a34 93bd 98f4 2c3e
00000220: bc79 5d3d 90fa 433e 3d71 143e 734f 1e3c
00000230: ce58 d3bd b859 023d 9104 f23d fd34 e33d
00000240: 3789 113e 9c65 593e 09b7 2b3c b678 9a3d
00000250: 255c 293e 6c24 0f3e 3a1e f8bc 98e6 8b39
00000260: 3cf3 1dbd 4d76 adbd fee0 c5bc 2adc d33d
00000270: 5c1c 4a3e acb6 0b3e 8d29 b9bd 0e63 193e
00000280: 3a51 b53d 63c1 25bf 77a1 4b3e d64d 78bc
00000290: c076 81bd b058 3abc 0039 893d cdb2 243e
000002a0: b7c4 e4bd 3720 483e dc53 be3d e9d4 23bd
000002b0: 6be6 0f3e 870e 89bd 6562 533e b277 cd3e
000002c0: 4f15 3a3e 1380 c03d dcb2 e5bd 6338 d8bd
000002d0: c18b 563e 01c4 d23e 186e 163e 9a19 1c3e
000002e0: ebe5 8fbd 3167 843e 3b58 96bd a666 cbbd
000002f0: dc63 493e 6fea 6a3c 0e18 8fbd b265 01bf

fc4.bias f4 [3]
0.0422021 -0.07290285 0.23077853
00000000: 1cdc 2c3d 174e 95bd 3551 6c3e
